bkp_inter/frame_interpolation_model.pth (torch, 333912 bytes, 6 tensors)

encoder.0.weight f4 [128, 6, 3, 3]
000000 44 e1 82 3d 91 36 4e bd f4 4c bb bd 43 8a 87 bd
       0.06390622 -0.050345007 -0.09145537 -0.06618168
000010 49 73 f5 3c 9c 52 e0 bd 47 50 86 3c c9 ad 1f 3d
       0.029962199 -0.109532565 0.016395701 0.038984094
000020 84 20 df 3c 2d e2 bd bb f5 d3 98 3d 41 88 70 bc
       0.027237184 -0.0057947845 0.074623026 -0.014680923
000030 e3 59 93 3d e5 9a 51 bd b4 d1 0b bd 09 98 68 bd
       0.07194879 -0.05117311 -0.034135535 -0.056785617
000040 2f 8a e8 b8 20 a8 be 3d ce 38 e1 bd d0 1c a3 3d
       -0.00011088361 0.09309411 -0.10997163 0.0796448
000050 40 45 80 bd 01 fd 8d bd 1a f6 a4 3d a0 bf c6 bd
       -0.062632084 -0.06933022 0.08054753 -0.09704518
000060 07 34 24 bd 79 e9 a7 3d 2e 83 94 3d d6 8b 3d bc
       -0.04008868 0.08198828 0.07251583 -0.011568984
000070 a9 67 ba 3b e2 aa 57 bd 50 7e 39 bc d2 92 ef 3d
       0.005688627 -0.0526532 -0.011321619 0.116979256
000080 71 ec 1b 3d 09 6c 17 bd 38 e8 f1 3d 02 b7 24 3d
       0.038067285 -0.036968265 0.1181187 0.040213592
000090 bb 7e 09 3c eb be 09 3e 50 97 30 bd 3a b0 96 bd
       0.008392031 0.13451736 -0.043113053 -0.07357831
0000a0 db 9a 06 3d c3 3b d4 bd 9e 10 05 be 62 7c df bd
       0.032862525 -0.10362961 -0.1299462 -0.10912396
0000b0 a5 ec dc ba 15 7a 89 3d d1 b0 ba 3d c7 eb 56 bd
       -0.0016855194 0.067127384 0.09115756 -0.05247095
0000c0 2b f3 a2 3d d4 9a 67 3b 6b 1d aa 3c 7f f2 01 be
       0.07956537 0.0035340087 0.02076598 -0.12690161
0000d0 3d 65 0c bd bc 0f 96 3d 3a 14 bd 3d 3f d8 4a bd
       -0.034276236 0.0732722 0.092323735 -0.049522635
0000e0 c2 80 1c 3d 63 95 8a 3d 04 2d cd bd 46 1c ac bd
       0.03820873 0.067667745 -0.10018352 -0.0840383
0000f0 5a 2b e7 bc a1 22 bd 37 b0 32 53 3d 29 ee e4 3d
       -0.028218914 2.2546681e-05 0.05156201 0.11178238
000100 0f 49 9b bd d6 78 a3 bd e2 c4 ec bd 03 85 aa 3d
       -0.07582294 -0.07982032 -0.1156099 0.08326151
000110 b0 ab c3 bd 01 f1 a9 bc 68 a6 a4 bd 1a 75 67 bb
       -0.09554231 -0.020744802 -0.08039552 -0.00353176
000120 29 91 b4 3d 0a 73 b2 3d 53 57 9e 3d 64 61 00 3e
       0.088167496 0.08713348 0.077314995 0.12537152
000130 c2 5e e8 3c 44 ed aa 3d 31 d3 07 be 22 99 e8 3d
       0.028365497 0.08346036 -0.13264157 0.11357333
000140 9c 08 94 3d ba cb b1 3d 5d fc 77 3d 77 7a c2 bc
       0.072282046 0.08681436 0.060543407 -0.023740036
000150 ea 6a 0b be a1 1a 9d bb cd 21 e4 3d a3 4a 5c bb
       -0.13615003 -0.004794434 0.111392595 -0.0033613823
000160 ed bd a6 bd 95 6b b9 bd de 70 45 3c 88 ae e1 3b
       -0.08141694 -0.09053723 0.012050835 0.006887261
000170 5f 7d b5 3c 65 db 7e ba c9 7c 88 3d f3 4a 68 3d
       0.022154508 -0.00097220234 0.06664426 0.056712102
000180 a4 19 c7 3d 58 18 0d be 6b 0e e7 3d 4a 98 62 bd
       0.097216874 -0.13778818 0.11282047 -0.055321015
000190 bf f3 83 ba a4 d6 85 3d 5f 04 b4 bd ed b5 bb 3d
       -0.0010067149 0.0653508 -0.08789896 0.09165559
0001a0 4e 81 c0 bd ee 36 05 be f8 8f e1 bd 17 bf b0 3c
       -0.09399663 -0.13009235 -0.11013788 0.021575494
0001b0 d1 64 02 be fe c1 97 3d c7 73 fa 3d 65 9e ad 3b
       -0.12733771 0.07410048 0.12229114 0.005298423
0001c0 bb 70 b8 3c 8f 30 5e 3d 5c b4 fb 3d ae 22 f7 3d
       0.022514692 0.054245528 0.1229026 0.120671615
0001d0 7d 4c d3 3d 91 8e 94 3d db e1 58 bd 66 92 d5 bd
       0.10317323 0.07253755 -0.052949768 -0.10428314
0001e0 9e f3 ce 3d a7 dc 42 3c 76 c8 25 bd dc a3 ea bd
       0.1010506 0.011893428 -0.040474378 -0.11457035
0001f0 8f 7d fa bd f7 ae 8f bd bc 30 11 3d be ee e4 3d
       -0.1223098 -0.07015794 0.035446867 0.11178349
000200 ee 6a ec 3c c6 e1 02 be d3 05 52 3d 5e dc 16 bd
       0.028859582 -0.12781438 0.051275086 -0.036831252
000210 e3 32 b5 bd 56 aa 93 3d 42 1d b3 bc d1 88 df bc
       -0.088475965 0.072102234 -0.021864537 -0.027286919
000220 e9 7c 0d bd 69 d2 fd bd 87 d5 00 3c 47 fe c4 3c
       -0.03454295 -0.12393648 0.007863409 0.02404703
000230 2b 8f f0 3d 3d c8 b1 bd e9 52 d4 bd 68 e0 de bd
       0.11746057 -0.086807705 -0.10367376 -0.10882646
000240 f7 96 8f 3c d0 40 6a 3d d7 e6 c8 3d ee f1 d8 3d
       0.01752804 0.057190716 0.09809654 0.105930194
000250 94 78 db 3d bc a1 d9 bd 3e 89 f3 bd 87 a4 00 3c
       0.10716358 -0.106265515 -0.11891411 0.007851726
000260 b2 41 c2 bd 33 ba e3 3d 46 f2 73 3c ef 4a 2f 3b
       -0.09485187 0.11119499 0.014889305 0.0026747545
000270 56 18 0d bc f3 4f 8e bc eb e8 fb bc e9 67 ce 3d
       -0.008611759 -0.017372107 -0.030750712 0.10078413
000280 94 0b 02 3e 2c 5e b4 bd 08 31 21 3d 63 44 98 bd
       0.12699729 -0.08807024 0.0393534 -0.07434919
000290 64 05 87 bd 2f 30 80 3c 43 3d b8 3d 2b 84 eb bc
       -0.06592825 0.015647976 0.0899606 -0.028749546
0002a0 25 9a 9b bd 0d c3 0b 3d e0 36 53 bc 3a 8c e3 3d
       -0.0759776 0.03412156 -0.012891501 0.111107305
0002b0 f5 4c 7f 3c ae 70 6a 3d df 9b ac bd cb 3e ef bd
       0.015582313 0.057236366 -0.084281676 -0.11681899
0002c0 c0 c5 16 3c 6a 23 bd 3d f2 cb d2 bc c7 83 b9 3b
       0.009202421 0.0923527 -0.025732014 0.005661461
0002d0 6d de e9 bd 1c 51 f5 3d 2c bf db 3d 26 96 86 bc
       -0.114193775 0.11978361 0.107298225 -0.016429018
0002e0 ad e2 07 ba 5e 99 86 3c f3 a4 b1 3a fe 72 73 3d
       -0.00051836186 0.016430553 0.0013553187 0.059435837
0002f0 09 ca a0 3d 95 ce c1 3d 6c 3e 9a bd 44 4f 80 bd
       0.07851035 0.094632305 -0.07531437 -0.06265119
000300 6d 66 e9 bd af a8 e7 bd 4a 6d 2b 3d 8e 00 0b 3d
       -0.11396489 -0.11311471 0.041852273 0.033936076
000310 fc 30 db bc c4 80 66 bd e3 d1 a6 bd 2f 4b 2c bd
       -0.026756756 -0.056275144 -0.081455015 -0.04206389
000320 c9 a3 42 bd 80 30 78 3d 72 84 02 be 87 73 8f 3c
       -0.04751948 0.06059313 -0.12745836 0.017511142
000330 b1 22 04 3e e3 2a eb 3d e9 b8 b9 3d 0f ef 98 3d
       0.12903859 0.11482789 0.09068472 0.07467472
000340 24 66 13 bd 0e f6 db 3d 9f b9 a5 3d f6 16 6c bc
       -0.03598608 0.107402906 0.08092045 -0.014409771
000350 a6 6a 95 3c 20 cc 4d 3d 0f d2 02 3e 00 a0 b2 3d
       0.01823933 0.050243497 0.12775443 0.08721924
000360 cc 10 d1 3d d6 e5 26 3d 4a b5 bf 3d 10 c1 cc 3d
       0.10208282 0.040746532 0.0936075 0.09997761
000370 03 a8 d9 3d 8d 0f 62 3d a9 21 cc bb ec bf c7 3d
       0.10627749 0.05519061 -0.0062295985 0.09753403
000380 a7 56 99 3c bf 23 89 3d b9 48 c8 bd 4f 56 f8 3d
       0.018718077 0.06696271 -0.09779496 0.12125837
000390 0e 3d 32 3c 3e 6f 01 3e ef 30 9e bd 78 59 9e 3c
       0.010878814 0.12640092 -0.07724177 0.019329771
0003a0 41 af 1e 3d 0d de aa bd 87 d3 c0 3d 79 1c 90 bd
       0.038741354 -0.08343134 0.09415346 -0.07036681
0003b0 a6 f8 1c bc 68 65 29 bc 8c 7f c0 3d 02 ab 0a bc
       -0.009580767 -0.010339119 0.09399328 -0.008463623
0003c0 b2 27 0b 3d 1e 69 13 3c 61 a3 ab 3d 30 9a 18 3d
       0.033973403 0.00899723 0.083807714 0.03725642
0003d0 d0 3a a6 3d d7 1c fc bd 8c 6e 81 bd 2f 06 27 3d
       0.08116686 -0.12310188 -0.06319913 0.04077738
0003e0 fd 1c b4 3d fa 5e 42 3d 4b b7 c1 3d 7c 44 82 3d
       0.087945916 0.047453858 0.094587885 0.063607186
0003f0 00 99 0a be cb df 73 3d b2 8e 71 3d 1b a4 4c 3d
       -0.13534927 0.059539597 0.058973975 0.04996119

encoder.0.bias f4 [128]
000000 e1 9f 0e 3d ee ae ae bd 12 16 f4 bb d4 fd 9a bd
       0.03482044 -0.08529459 -0.00744892 -0.07567945
000010 6f 75 d5 3d b6 c0 a2 bd a7 81 ab 3d 91 4a 95 bd
       0.10422789 -0.07946913 0.083743386 -0.07289613
000020 35 21 48 bc 18 82 cc 3b 0f f0 9c 3c e2 f7 f4 bc
       -0.012214948 0.0062410943 0.019157438 -0.029903356
000030 fc 25 02 3d 90 c6 ca 3c ae 50 22 3c 46 83 09 bd
       0.031774506 0.024752885 0.009906931 -0.033572458
000040 25 fe dd bd 5f 96 6a bd f3 92 59 3d fa 91 5e bd
       -0.1083949 -0.05727231 0.053118657 -0.054338433
000050 28 e5 e0 bd 7d 19 10 bd 09 02 3c bc e8 60 ba 3d
       -0.10981208 -0.035180558 -0.011475095 0.09100515
000060 05 11 4a 3d 2f 4f aa bd 47 07 04 3e aa 52 cc bc
       0.049332637 -0.08315884 0.12893401 -0.024941761
000070 ea ef a3 3d 50 56 6f 3d 1e c6 c3 bd 1a 8e 0e be
       0.08004744 0.058431923 -0.09559272 -0.13921395
000080 3c f9 4a bd 5d f7 d2 3d 0f a4 dd bd b7 7d c6 3d
       -0.049554095 0.10301087 -0.10822307 0.09691947
000090 9c cf 4b bd f0 94 29 3d e3 56 eb 3c ad 01 89 bd
       -0.04975854 0.041401803 0.028727954 -0.06689773
0000a0 82 43 a3 3d 46 a5 74 bd 2b a0 eb 3b 60 c7 98 3d
       0.079718605 -0.05972793 0.0071907244 0.07459903
0000b0 23 68 45 bd ad 1f da 3c 6c e6 97 bd e1 d0 01 be
       -0.048195016 0.026626432 -0.07416996 -0.12677337
0000c0 f3 92 9e bd e6 d4 e8 3d 55 9d b7 bd 70 57 3f 3d
       -0.07742872 0.11368732 -0.089655556 0.046714246
0000d0 5f f5 55 3d 5d d4 2f bd 4e 93 61 bd 93 eb b0 bc
       0.052235957 -0.042927135 -0.05507212 -0.021596706
0000e0 30 aa d9 bd 9b 2f c1 3d f5 3d ec 3d da 87 a4 3d
       -0.10628164 0.09432908 0.11535255 0.08033724
0000f0 7b c0 8a bc dd a5 21 3d 65 0b b7 3d c2 42 87 3d
       -0.016937485 0.03946482 0.0893772 0.0660453
000100 f8 04 16 bd 09 85 61 bd 1b df a1 bd b4 80 25 3d
       -0.036625832 -0.055058513 -0.07903882 0.040405944
000110 8d f9 a3 3d 2f 5a 62 3c a5 31 9d 3c 44 bc eb 3d
       0.080065824 0.013815447 0.019188711 0.11510518
000120 8c e8 38 3d b8 76 be bd 2c d3 be 3c a4 3c 30 3c
       0.04514365 -0.092999876 0.023294054 0.010756645
000130 26 64 a0 3c 90 2c 67 3d 1d 00 8a bd 5b dc 6f bd
       0.019579004 0.056438982 -0.06738303 -0.058559757
000140 aa a6 00 3d 31 1a bc 3d 50 b3 d0 3c b2 49 8a 3d
       0.031408943 0.09184683 0.025476128 0.067523375
000150 77 2d e1 3d 87 d7 82 bd a4 35 a7 3d a2 0f 85 bd
       0.10995 -0.06388765 0.08164528 -0.06497122
000160 29 81 2c bd 88 91 98 3d a5 90 c3 3d 82 62 cd 3d
       -0.042115364 0.07449633 0.09549073 0.100285545
000170 f2 84 98 bd eb 39 a5 bc 10 bc 93 3d c6 13 eb bd
       -0.07447232 -0.020169219 0.072136045 -0.11478381
000180 44 6d d1 bc 3c 34 fc bc 4e 2e 96 bd cf d6 c4 bd
       -0.025564797 -0.030786626 -0.07333051 -0.09611284
000190 54 89 98 3b 22 b3 e3 bc 32 61 de 3d ec 63 9f 3d
       0.0046550427 -0.027795378 0.10858382 0.077827305
0001a0 14 aa 86 3d 16 ab a5 3c 8f 9c b4 3c 59 1b 40 bd
       0.065754086 0.020223182 0.02204731 -0.04690108
0001b0 0e 7b ee bc 90 24 8b bd 00 bf d4 bc c5 b5 65 3d
       -0.029111411 -0.06794083 -0.025969982 0.056081552
0001c0 2c aa fa bd 71 a0 11 3d 91 ac ce 3b be cb 9d bd
       -0.12239489 0.0355534 0.0063071926 -0.07704876
0001d0 22 a9 44 bc e5 cd fd 3c 2b 6a b0 bc 8f 08 db 3d
       -0.012003215 0.030981967 -0.021535 0.10694992
0001e0 e8 8d d4 bd 54 94 61 bc d0 46 0c be 0e ff 4f 3d
       -0.10378629 -0.013768274 -0.13698888 0.05078035
0001f0 4f f2 c4 3d eb 45 02 3e 99 b7 87 bc c9 ca 60 bd
       0.09616529 0.12721984 -0.016567038 -0.05488089

decoder.0.weight f4 [64, 128, 3, 3]
000000 52 f8 60 bb 11 c8 e5 3a 4b 07 0b b9 5d 6b 77 3c
       -0.0034327698 0.0017530938 -0.0001325879 0.015101281
000010 f0 c9 ae bc a1 e9 62 bc d0 4a db 3b 49 05 76 3c
       -0.021336526 -0.013849647 0.006692268 0.0150159085
000020 8f 47 1a ba 5a ad 02 bc ea 7d fa b9 66 5e 68 bc
       -0.0005885297 -0.007975901 -0.0004777753 -0.014182663
000030 a7 20 0e 3b f0 2b 8b 3c 5e b7 3f 3b 59 09 9f bb
       0.0021686943 0.016988724 0.0029253582 -0.0048534092
000040 f4 eb f8 3c 30 ce ce 3c ae 29 8b 3c 5f 7c 59 3c
       0.030385949 0.025244802 0.016987648 0.013274281
000050 1f 1e 71 bc c4 98 13 bc 4b 10 97 bb 39 80 93 3c
       -0.014716654 -0.00900859 -0.0046100966 0.018005477
000060 cc de 29 3c 31 bd a0 3c f6 12 51 bb 13 ac e4 bc
       0.01036806 0.019621463 -0.003190217 -0.027914083
000070 09 ef 81 bc 1e de b5 3c 2d 61 8a bc b5 04 2b 3c
       -0.015861051 0.02220064 -0.01689204 0.010438134
000080 fd 9a 31 3c 88 9a d2 bb cd 9a bd b8 0d d2 f1 3b
       0.010840175 -0.006427113 -9.041056e-05 0.0073797763
000090 f9 3e de ba 2b 47 b9 bc d8 48 9f bc 73 85 99 3b
       -0.0016956023 -0.022616943 -0.019443914 0.004685098
0000a0 57 a4 af bb 0c cc 92 3c 30 c9 f2 38 cc 30 4e bc
       -0.005360167 0.017919563 0.00011576933 -0.012584876
0000b0 c3 cb dc 39 72 3d 58 bc 8e 38 80 bc 23 b6 4c bc
       0.00042113484 -0.013198243 -0.015651967 -0.012494597
0000c0 58 96 28 3c 0a e6 1b bc b2 f5 91 3a f7 ef 15 3c
       0.010289751 -0.009515295 0.0011135845 0.00915145
0000d0 49 fb 51 bc 08 d8 83 3c a2 6c 4b bc 4b 99 5e bc
       -0.012816259 0.016094223 -0.012416037 -0.013586353
0000e0 14 e2 c2 bc c7 ce cd bc 92 6b 80 bc 10 02 84 3b
       -0.023789443 -0.025123013 -0.015676294 0.004028566
0000f0 14 96 65 bc fb be 8a bb 8f dc 60 3c 89 9c 72 3b
       -0.014012832 -0.0042341924 0.01372446 0.0037019572
000100 be d5 b0 bc 0b 2a 43 bc 52 4a 80 bc 73 7c 46 3b
       -0.021586295 -0.011911879 -0.015660439 0.003028658
000110 3e ec 91 3c 6f 1d a5 bc 5b 60 d3 3c 24 9e 97 bc
       0.017812844 -0.020155637 0.025802782 -0.018508025
000120 14 89 85 ba 2d 7f 41 bc a7 b9 a6 3b 26 59 cd 3a
       -0.0010187947 -0.011810106 0.0050880495 0.0015666827
000130 7e 01 32 3c df 48 e1 ba 87 c8 9d 3c 84 f3 c8 3b
       0.010864614 -0.0017187855 0.019260658 0.006132545
000140 9d d6 83 3c 5c c0 91 bc cb ea 7d 3b e7 fa 52 bc
       0.016093547 -0.01779192 0.0038744684 -0.012877203
000150 16 2c cb 3c 10 f5 4e 3c fc f3 d6 3b d8 78 3a bc
       0.024801295 0.01263167 0.006559847 -0.01138135
000160 c7 6d b2 ba 09 b7 47 39 c2 58 15 bc f0 35 d6 3c
       -0.0013613038 0.00019046305 -0.0091154 0.026148766
000170 85 65 ae bb 95 9e b4 b9 bc 09 24 3c dc cd 90 3c
       -0.0053221607 -0.00034450428 0.0100120865 0.017676286
000180 6b 09 56 bc 64 6e 2d 3b 24 42 8c 3c 6e 9c 6c bc
       -0.013063769 0.0026463503 0.017121382 -0.014441593
000190 93 38 5e bc 5f d9 81 bc ae 8c 43 3c b5 cf 73 3c
       -0.013563293 -0.01585072 0.011935396 0.014881064
0001a0 43 70 5c 3b dc d9 73 3c 91 ee ab 3c f0 21 a2 3a
       0.003363625 0.014883485 0.02098778 0.0012369733
0001b0 28 70 e9 3b a1 92 6c 3c 58 2d 80 3c f0 5e 78 bc
       0.007123966 0.014439256 0.015646622 -0.015159354
0001c0 3b a2 5d bb 00 e8 c9 3c 63 fd 31 bc 1d 0c 9d bc
       -0.003381862 0.024646759 -0.010863635 -0.019170815
0001d0 e4 c9 1c bc ea 2a 0c 3c d0 e9 46 bc 4a d2 a4 bc
       -0.009569619 0.008555153 -0.012140706 -0.020119805
0001e0 2e 28 a2 3b 54 97 f5 bc 1a 1a a0 ba ba 83 f4 3c
       0.0049486374 -0.029979385 -0.001221481 0.029847968
0001f0 c6 f4 e9 3b b2 ac d1 3b 0f 5f 0c 3b 9e 4c d6 bb
       0.007139775 0.0063987607 0.0021418964 -0.006539895
000200 6e df a5 bb 12 c4 41 bc 50 79 0f 3a 90 f1 85 bc
       -0.0050620353 -0.011826532 0.0005473094 -0.016350538
000210 ed 0a 03 3b f3 10 00 3d 36 02 ad 3b fc e0 ff 3b
       0.0019995526 0.031266164 0.0052798046 0.0078088026
000220 32 c9 c4 3a b5 30 14 3c 88 91 13 3c e4 60 68 3c
       0.0015013574 0.009044816 0.009006865 0.014183257
000230 4b 80 c5 bb 6e bf 95 3b 91 ad 49 bb d0 7d d5 3b
       -0.0060272566 0.0045699393 -0.003077362 0.006515242
000240 30 d6 2b bc b3 a1 b4 bc 05 5f 06 bc ac e6 ca 3c
       -0.010488078 -0.02204976 -0.008201365 0.024768196
000250 30 24 bc ba 48 d9 db bc c8 7c 80 3c 73 5a cc bc
       -0.0014354046 -0.026837006 0.0156845 -0.024945473
000260 31 14 90 bb 1d 6d bc 3c fb f7 78 bc 39 89 9e 3c
       -0.0043969383 0.023001248 -0.015195842 0.019352542
000270 da 20 25 bb 70 5e b9 3b 6a 85 24 bc 78 3c 76 3c
       -0.0025196583 0.00565701 -0.010041574 0.015029065
000280 a3 d7 a2 3c 30 96 0f 3b b4 07 14 3b 1f a3 bc 3c
       0.019878214 0.0021909587 0.00225876 0.023027001
000290 96 8f d0 bb 97 0b 92 bc f3 34 16 3c c7 f7 a4 3c
       -0.006364773 -0.017827792 0.0091678975 0.02013768
0002a0 37 83 fe bc 09 b1 6d bc 2c a9 8a bc c3 54 d2 3a
       -0.031068427 -0.0145075405 -0.01692637 0.001604699
0002b0 42 b1 f5 bc 89 a0 9a bc ce 75 2a bc bd 54 29 bc
       -0.02999175 -0.018875377 -0.010404063 -0.010335145
0002c0 02 62 dd bc b2 0d b5 bc f9 f9 ef bc 10 22 28 bc
       -0.027024273 -0.022101257 -0.029294001 -0.010262027
0002d0 94 e4 58 3c 53 12 e2 bc fd 92 b1 bc 48 63 db 3b
       0.013238091 -0.027596628 -0.021676535 0.006695185
0002e0 a1 f7 a4 3c a2 10 e7 bb 23 70 8c 3c 91 ec 71 bc
       0.02013761 -0.0070515433 0.017143315 -0.0147658745
0002f0 ed 6c 87 3c c8 1f 6f 3c 04 1c a6 bc d8 85 c8 3c
       0.016531432 0.01459498 -0.02027703 0.024477884
000300 1a 83 3c bc 28 ad ed bb 4e cc 50 bc f3 58 9e bb
       -0.011505866 -0.007253308 -0.0127440225 -0.004832381
000310 49 54 c0 3c 94 2d c1 39 c3 be 3e bc 4d ab cc bb
       0.02347769 0.00036845787 -0.011642161 -0.0062460066
000320 ff 75 55 3b f1 0a f1 3c 95 0d a0 bc 3f 10 b1 39
       0.0032571552 0.029424163 -0.019537726 0.00033772175
000330 96 fb 2f 3c df e0 4d bc c9 85 8a 3b d4 48 aa 3b
       0.010741135 -0.0125658205 0.004227374 0.00519667
000340 d8 c9 56 bc 65 80 41 bc da 09 9c bc 06 6b 9f bb
       -0.013109647 -0.011810397 -0.019047666 -0.004865053
000350 f7 6e aa bc 1f dc 2b 3c 3a 81 bb bb c3 52 af bc
       -0.020804865 0.010489493 -0.005722192 -0.021401769
000360 fb a1 90 bc 51 4d 05 bc 6d 5d 4a 3b f6 4d 97 3c
       -0.017655363 -0.008136109 0.003087844 0.018469792
000370 af 08 80 3c 6a 4d a9 3c 0a 12 6c bc 82 37 29 bb
       0.01562914 0.020666797 -0.014408598 -0.0025820439
000380 7f ab 73 bc 04 d1 aa bc 35 19 b4 3c d2 bf b6 3c
       -0.014872431 -0.02085162 0.021984676 0.022308264
000390 3f 52 8c bc a2 17 5a 3c 53 97 dd 3a a9 aa 05 3c
       -0.017129062 0.013311299 0.001690606 0.008158364
0003a0 06 1a 97 bb 99 ff 0c 3c 42 ba a3 3c 2a b0 da 3a
       -0.0046112565 0.008605861 0.019986276 0.0016684581
0003b0 90 5a e5 bc 5c 02 b0 3c 8b 3b 91 bb a4 4b af bc
       -0.027997285 0.0214855 -0.004432147 -0.021398373
0003c0 85 0c c1 bc c0 f0 fc bc 98 d5 77 3b 2b 1f 0f bc
       -0.02356554 -0.030876517 0.003781652 -0.008735458
0003d0 1a 95 d1 ba bb 81 bc bc 92 cd 0d bc 44 43 30 3c
       -0.001598987 -0.023011079 -0.008654969 0.010758225
0003e0 f2 4d d8 bb 2a 68 c0 3c 70 43 dd 3c 73 fa d8 3c
       -0.0066010887 0.02348717 0.027009696 0.026486611
0003f0 44 58 5d 3b df 69 52 3b f3 b7 7d bc de a4 38 bc
       0.0033774534 0.003210656 -0.015485751 -0.011269776

decoder.0.bias f4 [64]
000000 8a 48 04 bd 88 ff a2 3c 07 7f a3 bc 89 ba 6f bb
       -0.03229574 0.019897237 -0.019958032 -0.003657969
000010 c8 29 52 3c 03 b9 cb 3c 43 01 f7 3c ed 9c a1 3b
       0.012827344 0.024868494 0.030151969 0.004932037
000020 9b 0b 10 bc 17 36 3e 3c 59 81 b9 bc 81 65 78 3c
       -0.008791829 0.011609576 -0.022644686 0.015160919
000030 1d 74 ae bc 49 50 5e bc 20 d7 eb bc a7 4b 47 bc
       -0.021295602 -0.013568946 -0.028789103 -0.012164033
000040 df 38 4f 39 1e 34 c0 3c 20 78 03 3c a5 40 bb bc
       0.00019762244 0.023462351 0.0080242455 -0.022857973
000050 56 d0 94 ba af aa 2c bc f5 43 db 3c 39 9d 56 bc
       -0.0011353593 -0.010538741 0.026765803 -0.013099008
000060 1d bc 87 ba 9e ed 14 3c 02 ea 1b 3c 8a a7 9d bc
       -0.0010355745 0.0090898555 0.009516241 -0.019244928
000070 bd f8 8d 3c a7 de 0a bc 9f 65 19 bc 16 89 23 3d
       0.017330522 -0.008475936 -0.009362607 0.039925657
000080 4f da 16 bd 72 52 3d bc 8f 95 da 3c 08 81 1b 3c
       -0.03682929 -0.011555301 0.026682643 0.009491213
000090 15 32 67 bc 5c 09 63 bc 97 1d bd 3c 8c a8 e5 3b
       -0.014111062 -0.013857212 0.023085399 0.0070086177
0000a0 d6 72 80 b7 29 10 85 bc 8f 12 9e 3c 0f b9 42 bc
       -1.5312264e-05 -0.016243057 0.019295959 -0.011884942
0000b0 38 74 19 3c 9f 8e 9c 3c e1 47 bb b8 a2 50 ac bc
       0.009366088 0.019110976 -8.930243e-05 -0.021034542
0000c0 1f 9c ce bc 9a d5 47 bb 41 65 00 3d 6c 25 77 3c
       -0.025220929 -0.0030492307 0.031346563 0.015084606
0000d0 8d be 5c bc 80 ba 4a bc dc 21 01 3c 6f b6 96 3b
       -0.013473165 -0.012373567 0.007881608 0.0045993845
0000e0 19 4a 44 3b b9 12 c1 3c a0 a0 b5 bb 9d e7 5d bb
       0.0029951392 0.023568498 -0.0055428296 -0.0033859976
0000f0 9d 5e ac 3c de 38 90 3c ce 28 87 bb a6 ea 7f 3c
       0.021041209 0.017605241 -0.0041247373 0.015619909

decoder.2.weight f4 [3, 64, 3, 3]
000000 a5 4d eb bc 2b 5f 0f 3d 09 58 66 3c 89 64 c4 bc
       -0.028723547 0.03500287 0.014059075 -0.02397372
000010 0b 0e 83 bb ac 13 11 3d bd 06 05 3c be 07 51 3c
       -0.003999477 0.03541915 0.008119282 0.012758194
000020 25 6f 2d bc ec 4e b4 ba 9f 17 11 bd 9f 13 57 3c
       -0.010585581 -0.0013756431 -0.035422917 0.013127237
000030 25 ba c0 bb 87 29 79 bc f1 68 c7 bc 04 77 49 bc
       -0.005881565 -0.015207655 -0.024342032 -0.012296442
000040 35 57 eb bb d7 14 be 3c a6 51 22 3c 58 f9 18 3d
       -0.0071820267 0.023203297 0.009907162 0.037347168
000050 49 65 1d 3d dd 96 0c 3d fe b7 2b 3d 63 1e e4 3b
       0.03842667 0.034323562 0.041923515 0.00696163
000060 1d c8 99 bc 55 14 ac bc 28 92 35 3c 25 b3 31 3c
       -0.01877218 -0.021005789 0.01108221 0.010845934
000070 a1 e9 be bb c9 c2 a1 3c 8e 91 e6 3c 94 af e5 bc
       -0.0058261906 0.019746201 0.028145578 -0.028037824
000080 92 c1 0b bd ee e4 da bc 85 ee 0c 3c 2d 9d 15 3d
       -0.03412015 -0.02672049 0.008601789 0.036526848
000090 58 d7 0b 3d 61 a8 06 3d 93 48 26 bc 9b d5 58 3c
       0.034140915 0.032875422 -0.010149139 0.013234521
0000a0 01 3b e1 bc 96 45 9a bc 9f 14 b4 3b 47 a3 2e bc
       -0.027493956 -0.01883201 0.0054956223 -0.010659046
0000b0 1b f1 d0 3c 03 c5 06 3c bb c1 16 bd dd 08 11 3d
       0.025505593 0.008225682 -0.03680585 0.035408843
0000c0 7b 98 c5 3c 0f 96 bb 3c ef f5 c2 3a 5a ad 9a 3c
       0.02412056 0.022898702 0.0014874319 0.018881489
0000d0 b1 47 13 bd a4 f6 b6 3b fd 8a 18 3d fc ae 68 bc
       -0.035957042 0.005583601 0.037241925 -0.014201876
0000e0 42 56 96 3c f4 93 a3 bc ee e1 e5 bc 04 ce 73 bc
       0.018351678 -0.01996801 -0.028061833 -0.014880661
0000f0 04 07 9e 3c 1e 4c 18 3c 7e 09 bd 3c 2d 6b f1 3c
       0.019290455 0.0092954915 0.023075815 0.02947005
000100 f0 2d 96 3c 63 a8 6d 3b 8e a3 10 3c 3d 43 15 3d
       0.018332452 0.0036263696 0.008828057 0.036441077
000110 c4 3f 2f ba 45 ca c5 3c 8f 48 68 bc 9e 46 06 3d
       -0.0006685222 0.024144301 -0.014177456 0.03278219
000120 3b e8 d9 b9 7a 69 8f bc 55 e9 6d 3c e9 19 e2 3b
       -0.0004156249 -0.01750635 0.014520963 0.0069000614
000130 6f b5 00 3d c8 d5 82 bc da 9b 23 3d df be 98 bc
       0.03142303 -0.01597108 0.039943554 -0.018645702
000140 30 8c d0 3c cb f3 88 3c d8 da a1 bc c1 53 31 bb
       0.025457472 0.016717812 -0.019757673 -0.0027057978
000150 40 d3 0d 3d f9 af c7 ba d8 d2 dd bc 55 67 86 bc
       0.03462529 -0.0015234939 -0.027078077 -0.016406694
000160 1c 88 b8 ba 6a ba bd bc 6f 80 58 3c 24 fc f3 3c
       -0.001407865 -0.023160178 0.013214215 0.029783316
000170 47 13 2d 3d 49 03 1e 3c 6f ee fc 3c 1a 2b 06 3c
       0.042254712 0.009644338 0.030875413 0.008188987
000180 59 54 57 3c 46 3a ca 3c 73 1c 06 3c a0 71 39 3c
       0.013142669 0.02468599 0.008185494 0.011318594
000190 f8 a5 0d 3d a4 38 0c 3d 37 59 25 3d 85 56 e6 3c
       0.03458211 0.034233704 0.040368285 0.028117428
0001a0 28 a8 8b bc 71 13 dd bc 39 36 64 3c a9 fc 77 bc
       -0.017047957 -0.02698681 0.013928943 -0.0151359225
0001b0 6c 16 88 bc cc 28 08 bd 2a 1f 67 3c 7f 2c d5 3c
       -0.016612254 -0.033242032 0.014106551 0.026022194
0001c0 c0 b7 3b 3d 1e 8f 23 bc 96 4b 87 3c b1 7f 47 3c
       0.045829535 -0.009982852 0.016515534 0.01217644
0001d0 5e 2d d6 bb ee f8 79 3c 0d 6e 13 bd 2c df 80 bc
       -0.00653617 0.015257103 -0.035993624 -0.015731417
0001e0 c9 e2 0f 3c 82 32 21 bd f0 f3 08 3d 85 1e 43 bc
       0.008782097 -0.03935481 0.033435762 -0.011909132
0001f0 44 a7 ce bb 98 b6 18 bd ad 9f 09 bd 9d 50 03 3b
       -0.0063065607 -0.03728351 -0.033599544 0.0020037063
000200 76 34 ab bc 8c 4f 36 3c 83 ed 4c 3d cf 65 07 3d
       -0.020899039 0.011127364 0.050031196 0.033056077
000210 83 58 a5 bc 8b 1b 2f 3d ed 8d aa bc e1 56 0f 3b
       -0.020183807 0.042750876 -0.020819629 0.0021871852
000220 b8 95 2e 3d 73 fd f4 3b 73 90 2a 3d a8 ec 91 bb
       0.04262325 0.0074765026 0.041641664 -0.0044532605
000230 99 1b b7 3c 88 18 f1 bc f2 59 fb 3c 1a 63 71 bc
       0.022352027 -0.029430643 0.030682538 -0.0147331
000240 d1 ed a7 3c c1 52 b2 3c 62 f6 95 3c d4 74 11 bd
       0.020499142 0.021767976 0.018305961 -0.035511807
000250 39 7c ef 39 5f ee b0 3c b6 6f 1d 3c 2b f3 00 3d
       0.00045678185 0.02159804 0.0096091535 0.031481903
000260 b6 d0 10 bd 05 f4 1a bc 5f d5 e6 3c 19 68 5a bc
       -0.035355292 -0.009457593 0.028177915 -0.013330483
000270 43 59 1f bc f9 75 16 3a 97 a8 4a bc 29 27 aa ba
       -0.0097258715 0.0005739625 -0.0123692965 -0.0012981641
000280 b4 19 74 3c a4 9f 6e bc 8a f3 b6 bc 91 92 8f 3c
       0.014898706 -0.0145644285 -0.022332925 0.017525943
000290 52 bf d8 3c 3b 7d 72 3b ba 33 8e 3c 27 ca ef 3c
       0.026458416 0.0037000913 0.01735865 0.029271198
0002a0 34 6d 44 3d d4 d7 a9 3a 57 96 14 bc a5 8b e4 3c
       0.047955707 0.0012957999 -0.009069047 0.027898619
0002b0 1b 49 03 3d 51 eb ac 3b dc 5e d5 bc 4c 9f 1b 3c
       0.03205214 0.0052770753 -0.026046209 0.009498429
0002c0 d4 73 9d bc 18 b9 b1 3c c9 28 95 b9 5a c8 d1 bb
       -0.01922027 0.021694705 -0.00028449882 -0.0064020576
0002d0 24 3b d2 3c 24 4f e9 bc 49 c5 4e 3c de 98 17 bd
       0.025662966 -0.02848012 0.012620279 -0.03701102
0002e0 8a cd 89 bc 37 8f e7 bc 1d 2e 0f 3c 22 e8 93 bb
       -0.016821641 -0.028266532 0.008739022 -0.0045137564
0002f0 dc 00 a1 3c 14 f1 3b 3c 5f cf 02 3d e8 d6 a1 bc
       0.01965373 0.011471052 0.031936046 -0.019755796
000300 b8 50 0e bd 8b 58 a3 bc 73 e4 c6 bc a5 34 0f bd
       -0.03474495 -0.019939682 -0.024278855 -0.034962315
000310 fd c1 5a bc 6c e1 92 39 c3 ea ba 3c c0 ae 63 bc
       -0.0133519145 0.00028015242 0.022817021 -0.013896644
000320 e9 3e aa bc 1f 21 03 3d 82 14 f3 bc e9 5a 1b bd
       -0.020781951 0.03201401 -0.029672865 -0.037928496
000330 14 db bb 3a 6b b4 5a bc 73 d7 8f 3b ba fa 31 bc
       0.0014332258 -0.013348679 0.004389697 -0.0108630005
000340 f2 2b 91 3c e0 16 09 3c 9a 0d b5 bc 11 e3 21 3d
       0.01772115 0.00836727 -0.022101212 0.039523188
000350 77 0c 23 3c 01 a5 b1 3c 96 be ac bc 7b 97 ec bc
       0.009951702 0.021685125 -0.021086972 -0.028880825
000360 e9 f2 7f bc 84 fc a6 3b 52 97 42 3d 3e dd d4 3c
       -0.015621879 0.00509602 0.04750759 0.025984403
000370 1b 29 8b bc 35 00 6e 3c 98 06 05 ba 84 45 35 bd
       -0.016987374 0.014526417 -0.000507453 -0.04425575
000380 ff cd 1b 3c 2b 66 55 3c 98 a5 a9 bc 04 73 61 bb
       0.0095095625 0.013024847 -0.020708844 -0.003440083
000390 c2 5f 27 bd b7 fc 8e 3c 7b b0 14 bd cb 81 c6 bc
       -0.040862806 0.017454488 -0.036301117 -0.024231812
0003a0 3b dd 6d bc b5 2f d4 3b 09 b8 34 bc d2 2b 30 3d
       -0.0145180775 0.0064754137 -0.0110302055 0.04301054
0003b0 19 d1 e2 bb 33 bf 8e 3b 4e f5 1c bc da 46 f9 3c
       -0.006921899 0.004356289 -0.00957997 0.030429292
0003c0 e1 76 53 bc 5a 40 a8 bb 80 b9 8e 3b 36 17 20 bd
       -0.012906761 -0.0051346244 0.0043556094 -0.039084636
0003d0 ac 35 5e 3b 56 bb 1b bd 3f 4e 8a bc d3 ea 1e bd
       0.0033906503 -0.038020454 -0.016883014 -0.038798165
0003e0 db 30 71 bc f1 2a 91 bb 4e ea e0 bc 6c 77 1b bd
       -0.014721121 -0.004430168 -0.027455475 -0.037955686
0003f0 8e f3 13 bd c6 3c 44 b9 e1 5f b0 bc fa b7 a5 39
       -0.036120944 -0.00018714656 -0.021530094 0.00031608326

decoder.2.bias f4 [3]
000000 da f1 f3 3b ce 8e 10 bd 12 59 18 bd
       0.0074446024 -0.03529244 -0.03719432
