frame_interpolation_model_BETA copy.pth (torch, 334036 bytes, 6 tensors)

encoder.0.weight f4 [128, 6, 3, 3]
000000 4e 90 f2 bd e3 7b 84 bd 8f a3 82 3d 33 2c 33 bd
       -0.1184393 -0.06468942 0.063788526 -0.043743324
000010 b5 51 6f bc e0 1c ca bd 19 99 b3 3d 0b 60 cb 3d
       -0.014606883 -0.09868789 0.087694354 0.09930428
000020 80 9a be 3d db 54 ae 3d b9 0f 9f bd 57 6e 12 be
       0.09306812 0.08512279 -0.07766671 -0.14299904
000030 fd 21 df 3c 4a 97 12 3c 65 76 87 bc 8a 80 96 3d
       0.027237887 0.008947203 -0.016535947 0.07348736
000040 bc 0b 9a bd 61 f8 af bb 96 29 b6 3d 7a ba f5 bd
       -0.075217694 -0.0053701852 0.08894651 -0.11998458
000050 c9 0b 43 3d 4f 9e 07 3d 80 92 05 be c2 ec af bd
       0.04761866 0.03310996 -0.13044167 -0.0859008
000060 b4 df 90 3d bc 54 5d 3d 78 6f d2 3d 73 34 f2 3d
       0.07073918 0.054035887 0.10275167 0.1182641
000070 01 62 eb bd 40 b1 f5 3d 4a 8b 57 bd b9 98 85 3d
       -0.11493302 0.119966984 -0.05262307 0.0652327
000080 e1 14 30 3d b4 2e 08 3e 56 08 8c 3d 2d 6b 8b bc
       0.04298866 0.13299066 0.068375275 -0.017018879
000090 4a 20 c5 bd 78 d6 fc 3c 44 0d f5 b7 a8 89 6a bd
       -0.09625299 0.030863985 -2.9212453e-05 -0.057260185
0000a0 71 a2 eb bd 3b 07 db bc 4e bd 17 bd 72 46 a4 bd
       -0.115055926 -0.026736846 -0.03704577 -0.08021249
0000b0 36 42 d5 bc ff 02 f9 bd 11 47 da 3d e2 ea 3a bd
       -0.026032548 -0.121587746 0.10658086 -0.045634158
0000c0 9c 8b af 3d 03 3e 56 bc 4b 28 4c bc ee d9 17 3d
       0.0857155 -0.013076308 -0.0124607785 0.03707307
0000d0 6e 47 f6 3c 49 ea 4f 3d 2e c0 6d 3c af 0e 07 bc
       0.030063357 0.05076054 0.014511151 -0.008243247
0000e0 3a 6f 0c bd 8f 7b a5 bd 59 54 fc bd 99 30 99 3d
       -0.03428576 -0.080802076 -0.123207755 0.074799724
0000f0 f5 ed 2d bd b4 83 60 bd a3 59 1c bd 6d 3d 9f bd
       -0.04246326 -0.054813102 -0.03817142 -0.07775388
000100 b2 20 eb 3d b8 cf 5f 3d 22 e1 8b bd 1a ef 0c 3d
       0.114808455 0.054641455 -0.0683005 0.034407713
000110 2f ed 94 3d d7 4a 0f bd f0 9b 02 3e db 80 8e bd
       0.07271802 -0.034983482 0.12754798 -0.06958171
000120 ec aa 63 3d 4d d9 cf 3c 25 04 f3 3d 96 e8 c1 bd
       0.055582926 0.025372172 0.11866025 -0.0946819
000130 76 7c ed bc a7 6f 87 3c 49 ed f6 bd 56 35 b9 bd
       -0.028990012 0.016532732 -0.12056977 -0.09043376
000140 d6 74 4a 3d 59 22 49 3d 0d 8b be bd 74 9a 8e bc
       0.04942783 0.049105022 -0.093038656 -0.017407633
000150 1e 96 3f bd 1e f7 88 3d af 86 49 bd 56 c4 65 bc
       -0.046774022 0.06687759 -0.04920071 -0.014023861
000160 4f 9b 16 bd a8 7d 47 3d 4d 88 83 3d 62 7d 18 3d
       -0.036769208 0.04870382 0.06422482 0.03722895
000170 c4 aa 46 3d 80 c4 e0 bd d4 49 43 3d 7f bf f1 bd
       0.0485027 -0.109749794 0.04767783 -0.11804103
000180 8d 74 22 bd d8 3e 35 bc 50 50 ec 3c 41 3c 0a 3e
       -0.039661933 -0.011062346 0.02884689 0.13499548
000190 5d 8e fd bd 02 88 83 3d e7 c6 99 bd a3 f2 ac bd
       -0.12380669 0.06422426 -0.07508641 -0.08444717
0001a0 9c 17 03 3c 42 74 bd 3d 5f c0 ad 3c 19 cf 68 3d
       0.008001234 0.0925069 0.021209894 0.05683813
0001b0 7d 4d 42 3c 68 03 02 3e 41 d1 ac bd ba 83 33 bd
       0.011859295 0.12696612 -0.084383495 -0.043826796
0001c0 da 3a 49 3d 26 be f2 bd be 0b b9 3d 84 bf 03 3e
       0.04912839 -0.11852674 0.09035443 0.12866026
0001d0 1f 6e bd bd 43 c0 c9 bd c8 09 2b 3c b5 08 8d bd
       -0.092495196 -0.09851124 0.010439344 -0.06886426
0001e0 d5 1c 2a 3d 4c 59 54 bd e3 41 d6 3d fc 03 ad bc
       0.041531403 -0.051842973 0.10461786 -0.021120064
0001f0 1b 5d ef bb fc 42 81 3d 36 b0 69 3c 2e 9f 16 bd
       -0.0073048 0.063116044 0.014263203 -0.0367729
000200 33 55 d8 bd 5e 9c f1 bd b0 17 db 3d 16 b9 d3 3d
       -0.105631255 -0.11797403 0.106978774 0.10338037
000210 38 e4 d0 3c 5b 7f 4a 3d 52 bb 84 3d 29 f5 eb bd
       0.025499448 0.049437862 0.06481041 -0.1152137
000220 0c 42 bf bd 01 29 b0 bd 4e 96 f8 bd ab b1 01 3e
       -0.09338769 -0.08601571 -0.12138043 0.12665431
000230 a3 8b 08 3e 8a 1e b9 bd 34 53 db 3d 4e 4b 24 3d
       0.13334517 -0.09039028 0.10709229 0.04011088
000240 19 0d 85 bd 42 bf a9 3d 61 47 06 be 16 59 f9 bb
       -0.06496639 0.08288433 -0.13113166 -0.007609497
000250 36 68 84 3d d0 eb 57 bd 87 47 0f 3e 76 a0 1c bc
       0.06465189 -0.052715123 0.1399213 -0.009559741
000260 a7 28 13 3e f2 20 fa 3d a2 5b 7c bd d4 65 41 bc
       0.14370976 0.12213315 -0.061610825 -0.011804063
000270 03 e3 83 bd b1 25 c7 bd 6c cd a7 bd 65 c9 8e bd
       -0.064397834 -0.09723986 -0.08193478 -0.06972007
000280 3a b4 d8 3d 75 4c 1f bd a2 4a 2e 3c 0f f1 d5 bc
       0.105812505 -0.038891274 0.010637911 -0.026115922
000290 24 77 ac bd b4 0b 8a 3d 83 65 13 3e 28 30 e6 3d
       -0.08421162 0.067405134 0.14394192 0.11239654
0002a0 2a bd f5 3d c4 12 dd bc b5 31 bd 3d 41 6a c6 bd
       0.11998971 -0.026986487 0.092379965 -0.09688235
0002b0 3c 34 43 b8 0a 74 c4 bd 12 ce ed bd 8c 28 16 bd
       -4.654027e-05 -0.09592445 -0.116115704 -0.036659762
0002c0 8f a4 33 bd cf fe 08 be 8f 38 b7 3c bf 70 eb 3d
       -0.043858107 -0.13378452 0.022365836 0.11496114
0002d0 e8 60 0f be 74 82 0b 3d a9 d9 f7 3d 48 22 67 3d
       -0.1400181 0.034059957 0.12102062 0.056429178
0002e0 e2 6a 82 bd 7c 9c fa bd ee 0f 83 3c 08 21 07 3e
       -0.063680425 -0.12236878 0.015998807 0.13196194
0002f0 60 e8 05 3e 85 ac 59 3d 89 7d d2 3c 10 ba c8 bd
       0.13076925 0.053143043 0.025694625 -0.098011136
000300 88 ae aa 3d c0 00 d8 bd 59 23 b3 3d bc 03 07 be
       0.083340704 -0.10547018 0.087469764 -0.13185018
000310 f0 06 db 3d eb de 13 3d c3 cb 43 3d 8e 22 5c bd
       0.106946826 0.036101263 0.047801744 -0.05374389
000320 a2 3c 95 bd 7d 5f 6c 3d c5 7d 68 3d 9e 9c e5 3d
       -0.072869554 0.057708252 0.05676057 0.11211513
000330 7a 50 27 bd d8 63 a9 3d 73 e0 0f bd b5 de 85 3b
       -0.040848233 0.08270997 -0.03512616 0.0040853866
000340 ec 7f fb 3d 78 fc 88 bc 4a 65 b8 3d f2 7f b7 bd
       0.122802585 -0.016721949 0.09003694 -0.089599505
000350 72 a1 f5 bb 30 42 33 bd 98 77 0d bd a9 f3 00 3d
       -0.0074960524 -0.043764293 -0.03453788 0.031482372
000360 26 92 8d bd e8 7e ee 3d 54 5c 9e 3d c8 59 00 3e
       -0.06912641 0.11645299 0.07732454 0.12534249
000370 22 ed 5a 3c 5e 29 ab 3d 56 75 76 bd 31 94 97 3d
       0.013362201 0.083574995 -0.060170494 0.07401312
000380 df 09 07 3e 65 7a 9c bd 69 58 55 bc 1a 9b 01 3e
       0.1318736 -0.076405324 -0.013021567 0.12656823
000390 a0 77 b9 3d da 18 da 3b 44 83 ba bd 2b e5 4c 3d
       0.0905602 0.0066557946 -0.09107068 0.05002324
0003a0 b6 7f ef 3d 63 33 5f bd 4e 9a 30 bd 93 f9 05 3e
       0.11694281 -0.054492366 -0.043115906 0.13083486
0003b0 74 87 f8 bd c9 48 e4 bd 19 4c ad bd 3f 46 e3 3c
       -0.12135211 -0.11146695 -0.0846178 0.027743457
0003c0 db c9 a9 3d 44 12 f7 bd c1 9d ec 3d 28 3f f7 3d
       0.08290454 -0.12064031 0.11553527 0.12072593
0003d0 19 39 10 3d 34 84 5a 3d 57 5a 85 bd 9d 73 e1 bd
       0.035210703 0.053348735 -0.065113716 -0.110083796
0003e0 62 50 ce 3a 12 62 07 3e 04 0d f1 bd c0 7c 02 be
       0.0015740509 0.13221005 -0.11770061 -0.12742901
0003f0 8e da 9e bd cb ef a7 3d 4e 20 00 be 31 7a c0 3d
       -0.0775653 0.08200034 -0.12512323 0.09398306

encoder.0.bias f4 [128]
000000 97 57 a0 3d 71 ae d0 bd 49 17 01 3d 1a f4 f8 3d
       0.078292064 -0.10189522 0.031516347 0.12155934
000010 5c e6 3c bd 82 2d 98 3c 5d 89 fb bd 76 bc a9 bd
       -0.046118125 0.018576387 -0.12282059 -0.08287899
000020 3f 26 bd bb ee ec b5 3b 5e ca 91 bd be 17 75 bd
       -0.0057723816 0.005551926 -0.071186766 -0.059837095
000030 f3 f2 5b bd 06 e6 34 bd cc 31 1a 3d 20 57 bb bd
       -0.05369849 -0.04416468 0.037645146 -0.09147477
000040 a7 be 2b bd 83 35 83 bd 20 24 13 be 55 6c a5 bd
       -0.041929867 -0.06406691 -0.1436925 -0.08077303
000050 b8 b9 59 bd ac 11 63 bd 4a cf 8c bd 9c ba b4 ba
       -0.05315563 -0.055436775 -0.06875475 -0.0013788524
000060 3b 92 8b bd 56 24 7b 3d 7f a3 03 be 3a bf 96 3d
       -0.068150006 0.06131395 -0.12855338 0.07360692
000070 31 dc 4f 3d 3b bd 88 bd a8 92 5f bd 09 a5 c5 bc
       0.0507471 -0.06676718 -0.05458322 -0.024126546
000080 3e 80 06 bd aa c4 b9 3c 24 c8 84 3d 21 67 15 3d
       -0.032837145 0.022676785 0.06483486 0.036475305
000090 bc a4 45 bd bf 45 b2 bd bb ab c7 bd b6 9d f7 3c
       -0.048252806 -0.08704709 -0.09749552 0.03022657
0000a0 ce d0 88 3d a1 35 e0 bd 6f 2f 7a 3d e4 41 af bb
       0.06680451 -0.10947729 0.061080392 -0.005348431
0000b0 f1 7b 29 3d b4 50 9c 3d 30 59 76 bd ef a7 a9 3c
       0.041377965 0.076325804 -0.06014365 0.02070996
0000c0 f7 18 b0 3d 0b 91 fc 3d 3f 3e 9e 3d ed bd f0 3c
       0.08598512 0.12332352 0.07726716 0.029387439
0000d0 42 93 1d 3c b2 89 e8 3b fa 58 b1 bd 03 ab 99 bd
       0.0096176285 0.0070964927 -0.08659549 -0.07503321
0000e0 60 90 b6 bc 49 5b e6 bd 49 20 d5 3c 2d 8e 81 3d
       -0.02228564 -0.1124788 0.026016371 0.06325946
0000f0 94 30 9c 3c 51 c9 01 be d8 8b d5 3d 36 ea dc bd
       0.019066133 -0.12674452 0.10427064 -0.1078686
000100 3b 1f 90 bd 4d 12 98 3d 7d 4f c4 3c 5f 11 1c 3d
       -0.07037207 0.074253656 0.023963684 0.038102504
000110 a7 3a c9 bc d8 6d e6 3d d2 a9 ff 3d c8 09 00 3e
       -0.0245641 0.1125142 0.124835625 0.12503731
000120 0d 05 4d bc 14 15 f9 3d 8d 70 9b bd b8 7b 09 bd
       -0.012513411 0.121622235 -0.07589827 -0.033565253
000130 1c c6 d6 bc dd 55 98 bd a6 74 0b 3c d6 31 ef 3d
       -0.026217513 -0.07438252 0.008511698 0.11679427
000140 96 e7 b7 3c b5 b2 cf 3d bc 48 99 bd 9b 1a 5b 3c
       0.022449296 0.101415075 -0.07484576 0.013373042
000150 fd 0c 74 bc d5 46 82 bd 49 f5 5e bd ee 8b 76 3d
       -0.014895675 -0.063611664 -0.05443314 0.06019204
000160 46 56 b8 bd b0 e1 a4 3b b9 34 a5 bd 13 8e e8 bb
       -0.0900083 0.005031787 -0.08066697 -0.0070970147
000170 ca 99 e1 bd 30 ca 38 bd 64 a5 f0 3d 63 98 a4 3c
       -0.11015661 -0.045114696 0.11750296 0.020092195
000180 3e 00 02 be 1b 73 ba bd 85 88 e1 3d ee 5d 91 bd
       -0.12695405 -0.09103986 0.11012367 -0.07097994
000190 9f 6c fd bd f3 60 6b bd a5 46 67 3d da c7 a7 bd
       -0.123742335 -0.057465505 0.056463856 -0.081924155
0001a0 4f 86 b3 bd 69 12 b0 3d 6c 8f 15 bd 33 81 96 3c
       -0.08765852 0.085972615 -0.03651373 0.018372154
0001b0 b5 74 16 bd 99 96 c7 bd 4c 6f 16 3d b5 ba 86 bc
       -0.036732394 -0.09745521 0.036727235 -0.01644645
0001c0 55 c5 82 bd 53 45 66 3d 8c 3a 9a bd 98 6b b7 bd
       -0.06385294 0.056218456 -0.07530698 -0.08956069
0001d0 e6 2b cb 3d 7c e8 16 3c d0 bd 73 3d 2e 64 05 3d
       0.09920482 0.009210702 0.05950719 0.032566242
0001e0 2c df 4a 3d 99 b1 eb bd 7d de 83 bd b4 4a 9d 3d
       0.04952924 -0.115084834 -0.06438921 0.07680264
0001f0 9b a5 f7 3d 0c 3b 55 3b 58 34 84 3c 50 c3 8b bc
       0.120921336 0.0032536415 0.01613824 -0.017060906

decoder.0.weight f4 [64, 128, 3, 3]
000000 02 13 24 3b 49 aa 8e bb db 73 1e ba 41 de ad bc
       0.0025035744 -0.0043537957 -0.00060444855 -0.021224143
000010 d2 6b cb bc e9 aa 9b bc 30 b4 2a bc 06 cc aa bc
       -0.024831686 -0.019002395 -0.010418937 -0.02084924
000020 4b e5 04 3d d0 f1 d0 39 f5 a7 3a bc d1 3c 1f bc
       0.032445233 0.00039853016 -0.011392583 -0.00971909
000030 dd 3b b4 3c be e9 bf 3c 19 2e 14 3c 95 52 aa bb
       0.022001201 0.023426887 0.009044194 -0.005197833
000040 af 5e 9c 3c f5 d1 31 3b c8 e0 88 3c a6 b7 61 3d
       0.019088117 0.00271332 0.016708747 0.05510678
000050 2a 60 ba 3c 41 63 01 bb bf 73 88 3c 81 7e 51 bc
       0.022750933 -0.0019742998 0.016656755 -0.012786509
000060 29 92 b5 bc 42 94 84 3a 74 e8 2f 3c db 04 65 3c
       -0.022164421 0.0010114985 0.0107365735 0.013978208
000070 37 9d f7 3b 58 a5 9b bc 8a 8f d0 3b 3d 13 20 bb
       0.0075565833 -0.01899974 0.0063647674 -0.002442553
000080 27 91 14 3c 18 a5 c7 3c f0 d2 4e bc 2a bb 22 3c
       0.00906781 0.024370715 -0.012623534 0.009932319
000090 86 bd df 3c 81 80 45 39 03 f4 d3 bb af a2 bd bc
       0.027312052 0.00018835255 -0.0064682974 -0.023148863
0000a0 1b 3b 94 3c 15 fa 87 bc fd 02 c8 3a e1 b8 9e bc
       0.01809459 -0.01659874 0.001525968 -0.019375267
0000b0 12 66 82 3c 65 9a 46 3a 96 73 a6 bc 52 68 19 bb
       0.015917812 0.0007576107 -0.020318788 -0.0023408127
0000c0 18 2f 34 bc 95 71 ad bc 05 de 1a 3c 17 90 a8 bb
       -0.010997556 -0.021172324 0.009452348 -0.00514413
0000d0 e1 8e 0d 3c 04 80 e7 3c dc 0f fa 3b 82 6f 02 3d
       0.008640022 0.028259285 0.007631285 0.031844623
0000e0 ff 40 52 3c f4 a6 bd 3c bb 6d fa bc 76 2e d2 3c
       0.012832879 0.023150899 -0.030569902 0.02565692
0000f0 89 3a 82 bc 79 41 15 3d 8a 45 3c bb 49 b0 f8 3b
       -0.015897052 0.036439393 -0.0028727972 0.007589374
000100 bf 85 1f bb ac 13 fe 37 49 7a f4 3a eb 50 3f 3c
       -0.0024341193 3.028832e-05 0.0018652166 0.011677007
000110 a8 26 95 3b 26 96 23 3c 7e 03 c4 3c ec 8a a5 bb
       0.0045517273 0.009984529 0.023927446 -0.005051961
000120 75 35 ac 3c f7 e1 5a 3b 7b e2 cb 3b 22 a0 60 bc
       0.021021584 0.0033398846 0.006222067 -0.013710054
000130 39 9c 38 bd 42 15 4e 3c 42 11 89 3c a1 9a 4f bc
       -0.04507086 0.01257831 0.016731862 -0.012671144
000140 fa 45 91 3c e4 63 40 3c d1 5a bc 3c f1 98 96 3c
       0.017733563 0.011742566 0.022992523 0.018383475
000150 93 32 50 bb 20 41 b3 bc 7d 63 ea 3b 70 69 a8 3c
       -0.0031768426 -0.02188164 0.007152973 0.020558089
000160 96 08 1e 3c 1d 21 3c 3c 69 4f b2 bc 25 d3 29 3b
       0.009645602 0.011482504 -0.021766381 0.0025913205
000170 7d 73 62 bc bb 0e 64 bc be f8 bb bc 97 04 cf bb
       -0.01382148 -0.013919528 -0.022945758 -0.006317686
000180 11 66 d5 3c 40 46 31 bb 7b ac 98 bc 69 ff 6d bc
       0.026049646 -0.002704993 -0.018636933 -0.014526227
000190 17 08 3d bc 23 62 8e bb 87 a9 f5 bc 96 1d 76 3c
       -0.011537573 -0.004345195 -0.029988063 0.015021702
0001a0 35 d8 5e 3c bf 98 50 bc 88 50 08 bd 07 2a 6a 3c
       0.013601352 -0.01273173 -0.033279926 0.014292247
0001b0 e9 f6 ba bb ad df 31 3c be 42 c0 3c 8e 73 43 bc
       -0.0057057035 0.010856551 0.023469325 -0.011929406
0001c0 82 5c 94 bc 33 0b d3 3b fa b5 b5 bc 0b 3d 83 bc
       -0.018110517 0.006440544 -0.0221815 -0.016020318
0001d0 29 46 c2 3c 20 e5 9c 3c 70 7b cd 3c 3c 8d 87 3c
       0.023715096 0.019152224 0.025083274 0.016546838
0001e0 dc 81 d5 3c b4 e9 29 bc cd 0a b4 3c 6a 67 b1 3c
       0.026062898 -0.010370661 0.021977806 0.021655757
0001f0 ce 89 d5 3c ce 63 7e bc 5f ec 6a bc e6 ab d4 3c
       0.026066687 -0.015526725 -0.014338582 0.025960874
000200 91 74 e2 3c 16 b9 05 bc 37 cf e0 3c 53 0b ca b9
       0.027643474 -0.008161804 0.027442558 -0.0003853688
000210 35 7c 6a 3b bc 1f 23 3a 3a 16 de bb b6 50 ac 3c
       0.00357796 0.00062226853 -0.006777552 0.02103458
000220 bd 05 b3 3b a3 3f 5d bc 61 6a 58 3c b0 6f 72 bb
       0.0054633305 -0.013503942 0.013208956 -0.003699284
000230 87 39 d1 3c af 02 e8 ba 31 76 fa 3c c9 93 1f bc
       0.025540126 -0.0017700995 0.030573936 -0.009739825
000240 31 28 46 bb 78 19 af 3c c3 a7 d9 3c dc ac 81 3c
       -0.0030236358 0.02137445 0.026569253 0.015829496
000250 a0 de e3 bc 18 d5 55 bb 45 3f ca bc a3 aa c3 bb
       -0.027816117 -0.0032628234 -0.024688372 -0.005971269
000260 cc 56 32 bc 8f d4 53 3a 48 8c 90 3c 31 a7 03 ba
       -0.010884952 0.0008080685 0.017645016 -0.0005022167
000270 c2 28 93 3b 03 ac 7d 3b 44 52 b8 3a 18 f1 34 bb
       0.0044909427 0.0038707263 0.0014062603 -0.0027609523
000280 16 1a 81 bc 38 2d 93 bc 47 93 f9 3a 58 2f 0c bd
       -0.015759509 -0.017965898 0.0019041084 -0.034224838
000290 a2 67 f3 3c 93 03 bd 3c b8 ee 89 bb d2 fb 5c bc
       0.029712502 0.023072993 -0.0042093657 -0.013487773
0002a0 f1 31 db bc 44 fb c8 bc e2 0b b1 bb b2 0f 8e 3c
       -0.026757212 -0.024533875 -0.005403028 0.017341468
0002b0 25 b7 26 bd 5a 9c 18 bd 40 29 bc bc f9 ad d4 39
       -0.040702004 -0.037258483 -0.022968888 0.0004056541
0002c0 9f 57 b5 ba 08 2f 83 bc a9 c9 a8 3b fb 81 cd 3b
       -0.0013835317 -0.016013637 0.005150993 0.0062715984
0002d0 a0 d2 f1 bb ae 72 78 bc 82 17 04 3c b7 17 d2 bc
       -0.007379845 -0.0151640605 0.008062245 -0.025646074
0002e0 59 3f c8 bb 30 f0 66 bc 56 5c 30 3b 92 1d 38 bc
       -0.0061110673 -0.014095351 0.0026910505 -0.011237519
0002f0 15 18 59 3c 3e 93 dc 3c 58 1d 31 39 1b f1 eb bb
       0.0132503705 0.02692568 0.00016890967 -0.007200373
000300 ca 4d 8c 39 64 eb d5 3c 56 88 85 bc a6 f8 65 bc
       0.00026760838 0.02611322 -0.016300362 -0.014036333
000310 4d dd 31 bc 09 e1 6c bc ca c2 ed bb 7d 49 8a 3c
       -0.010855985 -0.014457949 -0.0072558867 0.016880745
000320 6a 3e bd 3c 64 2f d9 3b b6 b7 23 3b 35 d7 78 3c
       0.02310105 0.006627964 0.0024981326 0.015188028
000330 67 99 e0 3c a8 04 89 3c 42 34 4a 3c 78 17 c6 bc
       0.027416898 0.016725853 0.012341561 -0.024181113
000340 0e c1 71 bb b4 50 1e ba 77 9f e0 3c ac 92 c9 bc
       -0.0036888751 -0.00060392474 0.027419789 -0.024606071
000350 5e f7 80 3c 95 13 c1 3a fe 3e 92 3c 02 de 99 bb
       0.015742954 0.0014730567 0.017852303 -0.004695655
000360 2e 55 3d 3c eb 39 fc 3c 24 2a 82 ba 63 5b 82 3c
       0.011555953 0.030789336 -0.0009930772 0.015912717
000370 00 61 30 bb cf b7 69 bc 8d 3b 8f 3a 3b 0a 84 b9
       -0.0026913285 -0.014265015 0.0010927782 -0.00025184624
000380 9f ac 96 3c 0d 1a 4b 3c 16 58 a6 3c 94 29 cf ba
       0.018392859 0.012396348 0.020305675 -0.0015805238
000390 41 8e 89 bc 0c c6 f2 bb 89 c1 78 bc a4 0f 22 3c
       -0.016791465 -0.007408863 -0.015182861 0.009891424
0003a0 79 01 b9 bc f3 3e 4d bb 61 b2 b1 3c c3 e7 87 b9
       -0.02258371 -0.0031318038 0.021691503 -0.00025921882
0003b0 46 65 df bc 68 8e b0 3c 64 5a 0e 3d e8 c0 c1 3c
       -0.02726997 0.02155228 0.034754172 0.023651555
0003c0 e3 e6 70 3c 62 13 2e ba 72 a5 8b bc 93 3a 0c 3c
       0.014703485 -0.00066404615 -0.017046664 0.008558887
0003d0 c0 ed 32 ba b6 8e fe bb 40 2a aa bc 79 f7 6f bc
       -0.00068255886 -0.0077684773 -0.0207721 -0.014646404
0003e0 16 48 d5 3c c5 22 9b bc 4c 2b 9f 3b cb ac b0 bc
       0.02603535 -0.018937478 0.0048574563 -0.02156677
0003f0 d2 4c 4c bc c5 e7 50 bc 02 a4 01 3d f4 bb f9 bb
       -0.012469487 -0.012750571 0.03165055 -0.0076212827

decoder.0.bias f4 [64]
000000 bb bb b0 3c e3 96 c1 3c 07 1f d7 ba 9d 39 30 bc
       0.021573892 0.023631519 -0.0016412445 -0.010755924
000010 d7 87 0f bc 38 ff 20 3a 4a 45 9a bc e3 bc 62 3c
       -0.008760414 0.0006141546 -0.018831868 0.013838979
000020 1e 62 1b 3c 26 a4 c9 bc ce 6a 25 3c 5c 96 86 3b
       0.009483842 -0.024614405 0.010096265 0.0041072797
000030 85 20 95 bb 8f 39 0d 3c 07 74 5d bc b8 fd 0d 3d
       -0.004550996 0.00861968 -0.013516433 0.034665793
000040 e5 ed 7f bc 8c 1c 7b bc e3 97 0b 3c 8d 74 73 3c
       -0.015620683 -0.01532663 0.008520099 0.014859331
000050 2f f2 97 3a c3 0e d5 bc 76 af 38 3a c2 19 a4 3b
       0.0011592562 -0.026008015 0.00070451887 0.0050079534
000060 17 5d a2 3b d6 57 be bc 92 c8 00 bc 94 3d 59 3c
       0.004954945 -0.023235243 -0.00786032 0.01325931
000070 99 10 b2 3c b7 42 f4 3c 6e aa cd 3a a8 31 38 3a
       0.02173643 0.029816968 0.0015691051 0.00070264423
000080 d7 37 75 3b 8c 9e 5a 3c f7 bf 37 ba 70 d6 af bb
       0.0037417316 0.013343465 -0.0007009501 -0.005366139
000090 ee ee f2 3c fc 05 de 3c a2 72 07 3c 7a 65 d4 3c
       0.029654946 0.027102463 0.008267077 0.025927294
0000a0 59 9d c3 3c 7b 58 48 3c ac 17 fe 3b 70 7d b1 3b
       0.02387874 0.012228127 0.0077542868 0.0054165646
0000b0 ff 8f 95 3c 2c 53 a4 bc 78 81 84 bc 8d 37 2b 3c
       0.01825714 -0.02005919 -0.016175017 0.010450256
0000c0 a9 de 0a 3d 2d 10 70 bb cc 70 be bb 32 59 9b bc
       0.03390375 -0.0036630735 -0.0058117863 -0.01896343
0000d0 cc 81 cb 3b 63 74 ab 3c 64 3d bf bc 93 95 79 bc
       0.0062105414 0.020929521 -0.023344703 -0.015233415
0000e0 ed cf 8d bb 13 7d b2 bb 03 b3 8f bc e9 e9 85 3c
       -0.004327765 -0.005447039 -0.017541414 0.016346889
0000f0 6a f8 34 3c eb 2f 20 3d 1e 02 3e bc 1e 91 f2 3c
       0.011045555 0.039108198 -0.011597184 0.029610213

decoder.3.weight f4 [3, 64, 3, 3]
000000 38 25 fd 3c 24 b8 12 bd 9a 1d b3 3c 08 23 8f 3a
       0.030901536 -0.03582014 0.021864701 0.0010920474
000010 c1 35 d7 3c 71 c5 95 3c 01 a4 6d bb ce a9 b6 3c
       0.026270749 0.018282624 -0.0036261084 0.022297766
000020 ad 75 23 3a e1 39 16 bd 78 e6 18 bd f9 9f 31 3a
       0.00062354916 -0.03667629 -0.037329167 0.0006775852
000030 12 32 34 bc ea 71 45 bd 1e 14 1a 3b bd 0e c6 bc
       -0.010998266 -0.04820434 0.0023510526 -0.02417695
000040 11 42 de 3b 75 83 0a 3c 35 58 17 39 cb 39 fd bc
       0.006782778 0.008454193 0.00014433342 -0.030911347
000050 a8 8a 56 ba ad 5e a6 bc be 5b ba 3c 98 b9 ae 3a
       -0.00081841135 -0.020308817 0.022748824 0.0013330458
000060 8c 21 0c bb db 7a 1c bd 8c 3b 22 bd b5 33 22 3c
       -0.00213823 -0.0382031 -0.03960757 0.009900023
000070 9c 57 1f 3d bc 6c 79 3c 20 61 e7 3c e3 99 fc 3c
       0.03890191 0.015223678 0.028244555 0.030835098
000080 be 58 31 3d 60 2e 22 3d 29 bd 90 bc 47 60 0e bc
       0.04329752 0.039595008 -0.017668324 -0.0086899465
000090 c1 8b 31 bd 15 e3 23 bd 61 da 94 bc 2c d9 17 3c
       -0.04334617 -0.040011484 -0.018170537 0.009268086
0000a0 89 aa a1 3c 6d 8c 78 bc dc c8 5f 3c 3f 4a 20 bd
       0.019734638 -0.015170199 0.013658728 -0.039133307
0000b0 1e ba aa bc bc 80 99 ba b6 0d 04 3d d9 ff b7 ba
       -0.0208407 -0.001171134 0.03223964 -0.001403804
0000c0 3d 9f ca 3c 0c 54 f4 3b d3 29 2d bd b6 a8 ec 3b
       0.024734134 0.007456308 -0.042276215 0.0072222603
0000d0 42 71 03 bc f7 98 7a bb 3d 63 12 bd 7d a6 f7 3c
       -0.008022608 -0.0038238147 -0.035739172 0.030230755
0000e0 00 78 14 bd b4 47 2d 3d 52 f6 42 3d 3a 71 85 3c
       -0.036247253 0.04230471 0.04759819 0.016289342
0000f0 4b 7b d9 3c 45 9b 35 bc 73 11 6c 3c df 35 d0 3c
       0.026548048 -0.011084382 0.014408457 0.025416313
000100 4e e1 06 3d 9f 36 82 bc d4 aa 44 bc f1 72 08 bd
       0.03292971 -0.015895186 -0.012003619 -0.03331274
000110 4b ce a4 38 94 6d 14 bd 3c 2e 0c 3d 5c cd 0b bd
       7.8585545e-05 -0.036237314 0.03422378 -0.034131393
000120 cd ba 10 bd 77 07 87 bc 3c 02 66 3b 0c 6c d1 3c
       -0.035334397 -0.016483052 0.0035096547 0.025564216
000130 fc 87 77 3c 09 3f 14 ba ab 61 93 bb 30 37 80 3c
       0.015108105 -0.0005655145 -0.004497727 0.015651315
000140 b0 c7 a3 bb 09 7f 77 3c e6 f2 fe 3a 36 3f 2b 3d
       -0.00499817 0.015105971 0.0019451051 0.04180833
000150 e8 18 42 bc 77 e0 ae 3c ff e1 b2 bc 4d d7 b1 ba
       -0.011846758 0.021347268 -0.021836279 -0.0013568193
000160 e0 c5 bf 3c 0a c5 8c 3c 05 ca 97 bc 8a 51 2d 3d
       0.023409784 0.0171838 -0.018528948 0.04231409
000170 52 21 11 3d 09 7d b6 bb c8 3b 00 3b 46 70 a1 ba
       0.035432167 -0.0055691046 0.0019566882 -0.0012316785
000180 5e 8a ee bc 9d 6d fb bc 68 18 bc b9 7c 80 b2 3c
       -0.029118713 -0.030691916 -0.00035876338 0.021789782
000190 32 21 d7 3c 7f d5 97 bb 4b 38 c4 3c 61 e0 85 3c
       0.026260946 -0.004633605 0.023952624 0.016342344
0001a0 b1 bb cb bb af d8 4d 3c 6a 39 17 3d e8 ed dc bc
       -0.006217443 0.012563868 0.03691999 -0.026968911
0001b0 23 63 da 3c f1 30 e4 bc 08 db 9e bb 4a b4 ea 3c
       0.0266586 -0.027855368 -0.004847888 0.028650422
0001c0 58 74 e4 bc 50 7a 86 3c 90 07 a3 bc b6 ff c8 bc
       -0.027887508 0.016415745 -0.019901067 -0.024535995
0001d0 14 29 20 bd f1 bf b7 bc b8 6a 0b bd 45 0a 3d 3c
       -0.039101675 -0.022430392 -0.03403732 0.011538093
0001e0 e3 c4 ba bc b9 18 f9 3a 96 e9 b2 bc 80 05 df bb
       -0.022798961 0.001900456 -0.021839898 -0.0068060756
0001f0 75 2a 91 3c 40 d8 e0 3c 67 a2 c4 bc dc 0f 24 3d
       0.01772044 0.027446866 -0.02400322 0.040054187
000200 43 ba e1 3c 14 7a aa 3c c0 43 4e 3c 28 b1 92 bc
       0.027554637 0.020810165 0.012589395 -0.01790674
000210 42 32 45 bb 7f d5 fa bc fd c1 a2 3c df 88 d9 3c
       -0.003008977 -0.030619381 0.019867891 0.026554523
000220 14 78 6c bc b2 6b 15 bd 90 1a ac 3c 68 41 98 bc
       -0.014432926 -0.03647966 0.02100876 -0.018585876
000230 39 d6 0f bd 68 0e 17 bd ac 3c a7 bc 55 b1 19 3d
       -0.035116408 -0.036878973 -0.020414673 0.037522633
000240 9c a3 30 bc 12 e6 17 bc 26 7f 9a 3c 87 ab 0d bc
       -0.010781195 -0.009271162 0.018859457 -0.008646852
000250 f9 c5 14 3c 16 93 35 bc 39 af 8e 3c 60 c0 17 bd
       0.0090804035 -0.011082431 0.017417537 -0.037048697
000260 b7 68 29 bd 39 05 75 bb 85 3e 15 bc 6e 43 91 bc
       -0.04135963 -0.0037387146 -0.009109144 -0.017732348
000270 a0 da 28 bd 09 11 cd 3b a1 5b 6d 3a fd 7c 7a 3b
       -0.041224122 0.0062581343 0.0009054486 0.0038221471
000280 6f 32 a4 bb 1f cd 93 bc 19 0e 29 bc 53 39 54 3b
       -0.005010895 -0.018042145 -0.010318303 0.00323828
000290 8b 7d ad bc af bd 31 bd a4 fe c6 bc ca 26 a1 bb
       -0.021178028 -0.043393787 -0.024291344 -0.004917954
0002a0 e9 0e 06 bc b2 f0 ab 3c 2a 6b 02 3c 1c a1 20 bc
       -0.008182266 0.020988796 0.00796012 -0.0098040365
0002b0 f6 ea 07 3c 57 25 2b 3c a4 2c a8 bc 08 8c 36 3d
       0.008295765 0.010445914 -0.020529099 0.044567138
0002c0 f5 ee 9b 3c 61 ae 71 bc f8 f6 e4 3c 2e 79 06 bc
       0.019034842 -0.014751048 0.027949795 -0.008207602
0002d0 1d b1 1d 3c 39 4d ba bc 5e 7a 86 3c 4c 57 ee bc
       0.009624747 -0.0227419 0.016415771 -0.02909436
0002e0 92 74 0d bd c8 45 57 3d 69 a5 e5 bc 1c 4c 3a 3c
       -0.034535 0.052556783 -0.028032975 0.011370685
0002f0 b6 dd 5b bc 2c 81 b8 3c 1d 70 b4 3c 61 d0 92 3c
       -0.013419559 0.022522531 0.022026116 0.017921628
000300 ed 3a 88 bb 97 2a ea 3c 45 02 a9 bc 03 54 20 bd
       -0.004157415 0.028584762 -0.020630965 -0.03914262
000310 18 c8 e1 bc b3 70 ca 3c 89 74 fc 3c 7a eb 05 bd
       -0.027561232 0.024711942 0.030817287 -0.03269527
000320 14 5e f1 bb a9 30 6f 3c 85 58 35 3c 93 b5 85 3c
       -0.0073659513 0.014599004 0.011068468 0.016321933
000330 d8 ae 88 3c 8c c0 15 3c 09 86 41 3c 44 91 a2 3c
       0.016684934 0.009140145 0.011811742 0.019844659
000340 7c 86 7b 3c 61 57 80 bc bb 99 08 bd 60 c9 4e bd
       0.015351888 -0.015666666 -0.033349734 -0.050485015
000350 a0 c9 ba bc 21 d3 a2 bc b9 65 0f bc e8 7a 49 3c
       -0.02280122 -0.019876065 -0.00875228 0.01229737
000360 d4 ab f3 bc 25 24 0d bd 01 b6 bd 3c e4 0b 7b 3c
       -0.02974502 -0.0344583 0.023158075 0.015322659
000370 27 0a 4d bc 93 29 bd bc f7 5e c2 bc 46 b1 b2 bc
       -0.012514628 -0.023091113 -0.023726923 -0.021813046
000380 aa ce fe 3c 88 e1 01 bd fd 01 28 3d 78 e7 a1 bc
       0.031104404 -0.031709224 0.04101752 -0.019763693
000390 4b f7 61 bc 1b 07 35 3b fd b6 5b 3c 4d b3 7a 3c
       -0.013791869 0.0027622643 0.013410327 0.015301538
0003a0 68 79 43 3c d2 20 16 bd 61 79 20 bd 47 71 81 3c
       0.011930801 -0.036652394 -0.039178256 0.015801085
0003b0 7e 2b d4 3c de 95 cf bc 41 71 d4 3c 4b 22 c3 bc
       0.025899645 -0.025340017 0.02593291 -0.023820063
0003c0 ee e0 05 bc 70 67 a5 3b ea 81 c1 bc 2b 38 73 bc
       -0.008171303 0.005047731 -0.023621518 -0.014844934
0003d0 93 b2 19 3c 20 b4 57 3a 16 04 38 3c b8 98 a9 3c
       0.009380954 0.000822844 0.011231443 0.020702705
0003e0 45 cd a8 3c 9f 76 80 3c 4c 60 ed 3c 5b 60 e4 3c
       0.020605693 0.015681563 0.028976582 0.027877977
0003f0 71 34 c9 bc a8 de a6 bb 9f c4 0a 3b da 2a 31 bd
       -0.024561139 -0.0050924607 0.0021174324 -0.043253757

decoder.3.bias f4 [3]
000000 14 32 19 3c 35 22 e1 3b 01 22 3a bc
       0.009350318 0.006870533 -0.011360646
