frame_interpolation_model_BETA copy.pth (torch, 334036 bytes, 6 tensors)

encoder.0.weight f4 [128, 6, 3, 3]
000000 1b 28 02 bc a1 06 12 bc 3f f4 cb bc 40 b5 98 3a
       -0.007944132 -0.008912713 -0.024896739 0.0011650696
000010 15 31 e6 bd 78 dd c7 bc dc 74 59 3d e7 da 0e 3e
       -0.112398304 -0.024397597 0.05308996 0.13950692
000020 a2 63 ba 3d 98 85 6c 3c 2a b1 67 3d 03 df c6 bd
       0.09101035 0.014436148 0.05656544 -0.09710505
000030 19 73 c5 bc 74 ca 44 3c e3 c2 af 3d 19 c3 9f bd
       -0.024102734 0.012011159 0.085820936 -0.07800884
000040 6f c6 0a 3e ec bc 0b 3e 0b 1b fd bd 98 a1 1f be
       0.13552259 0.13646287 -0.12358674 -0.15588987
000050 f8 45 35 3c cf 91 8c 3d 48 2d 13 bd fa a0 45 3c
       0.011064045 0.06863748 -0.035931855 0.012062306
000060 28 a7 ad bc c4 1a c6 3d aa ce b8 bd 27 63 1e 3d
       -0.02119787 0.09673074 -0.09023793 0.038668778
000070 f9 f0 ef bd 7e 56 03 bd 7e dd 8c 3d e9 34 e6 bd
       -0.11715884 -0.032064907 0.06878184 -0.112405606
000080 a4 90 db bd 27 b9 8c bd cd 54 8b bc 59 38 a0 bc
       -0.107209474 -0.068712525 -0.01700821 -0.019558119
000090 b5 a3 ca bd c7 c2 aa bd 38 a1 ac 3b 7e d9 db bd
       -0.09894506 -0.08337932 0.005268242 -0.10734843
0000a0 9f 18 f2 3d ba 93 76 3c 2f fd c3 3d ea 4a 99 3c
       0.11821102 0.015049869 0.09569775 0.01871248
0000b0 23 e1 eb 3d 4d 32 bc 3c e5 0c 58 bd e6 96 05 3d
       0.11517551 0.022973204 -0.052746672 0.03261461
0000c0 e6 0c 95 bc fd a8 8c bd ad 84 b5 3d 37 36 b9 3d
       -0.018194627 -0.068681695 0.088631965 0.09043544
0000d0 99 7b fc 3d b8 05 e1 3d 19 2d df 3d 3e d5 01 3e
       0.12328262 0.10987419 0.108972736 0.12679002
0000e0 74 4e 01 be 3c 71 0d bd ac dd 1b 3d db cf 56 3c
       -0.12627584 -0.034531817 0.0380532 0.01311108
0000f0 de 2b b6 bd 4b c9 46 3d 68 39 17 3d 4f 7f 63 bd
       -0.08895086 0.04853181 0.03691998 -0.055541333
000100 21 1a 9c bd fc 80 6c 3d ee c8 ec 3d 51 ec 51 3d
       -0.07622171 0.057740197 0.11561762 0.05125076
000110 3f 71 e8 bd c0 ab 1c bd 91 d0 d7 bd f4 7e 93 3d
       -0.11349725 -0.03824973 -0.10537828 0.07201949
000120 21 38 28 3d fd 6b 60 3d fc b2 09 be 69 84 7a 3d
       0.041069154 0.054790486 -0.13447183 0.061161432
000130 70 1c bb bc 90 55 c3 3d 5a 18 cc 3d 5c 1c e2 3d
       -0.022840708 0.09537804 0.09965582 0.11040565
000140 b3 a9 a7 3d 7d ea 8e bd 21 f5 c4 3d 50 c2 2d 3d
       0.081866644 -0.06978319 0.09617067 0.04242164
000150 b1 77 d5 3d fe bc 3f bc 5c f2 96 3c 55 53 bb bd
       0.1042322 -0.011702774 0.018426113 -0.09146754
000160 0b 63 0b bd ef 88 12 be 45 e8 bf 3d 69 7f 6a 3c
       -0.03403 -0.14310049 0.09370474 0.0143126035
000170 41 66 5b bd 9d 03 86 3d 62 64 09 3e 4c d9 b1 3d
       -0.053564314 0.06543658 0.13417199 0.08684024
000180 cb d6 fa ba 69 02 06 3d 8d 16 01 be f2 4b 26 bd
       -0.00191375 0.032717142 -0.12606259 -0.04059977
000190 16 8e 85 3d fe 8d 00 be 33 40 b4 3d db a4 8e 3c
       0.06521241 -0.12554166 0.088013075 0.017412594
0001a0 93 7a 9e 3d e0 c0 b0 3d 28 4b 02 bd c7 fd d8 3c
       0.07738223 0.08630538 -0.031809956 0.026488198
0001b0 2b 73 08 3d a1 5f c8 3c 9e ef d6 3d 25 71 51 3d
       0.033312958 0.024459662 0.10494922 0.051133294
0001c0 09 66 c5 3c 9d 0e ee 3c 83 3f 55 bd 6b 88 bd bc
       0.024096506 0.029059703 -0.052062523 -0.023136338
0001d0 3a 3b 7e bd b2 6f 12 3d 1b 5e 28 bd d8 ea 4d bd
       -0.0620682 0.035751052 -0.04110537 -0.050272793
0001e0 32 10 06 be b2 e8 34 3b ca 02 00 3d b7 2a fd bd
       -0.13092116 0.0027604518 0.03125266 -0.12361663
0001f0 54 21 08 3e 0c d1 bb bd 28 a4 8d bd 36 48 8a 3d
       0.13293964 -0.09170732 -0.06916076 0.067520544
000200 dc 9d 70 3d fd e6 bf bd 30 c6 3e bd 59 c9 f6 3d
       0.058744296 -0.093702294 -0.046575725 0.12050123
000210 dd 37 0f bd ae 28 17 3a ad c5 40 bc 16 51 5e 3d
       -0.034965385 0.00057662546 -0.01176588 0.05427655
000220 86 0f 60 bd c3 97 15 bd 09 0a 1e bd 10 7b de bd
       -0.054702304 -0.036521684 -0.03858379 -0.10863316
000230 36 23 a9 3d 3a 82 d3 3d 9b df c0 bc 24 29 8e bd
       0.08258669 0.10327573 -0.023544123 -0.06941441
000240 e6 cd ca bd 98 e3 91 bc 5d d8 22 bc 74 b7 eb 3b
       -0.09902553 -0.01780872 -0.00993928 0.0071935
000250 3f 5d 86 3d d8 8a b3 bd ef 7a c7 3d 8b fe f4 3d
       0.06560754 -0.08766717 0.097402446 0.11962613
000260 e4 71 02 3e b2 85 1e bd bc 8c 18 bb 3e 91 06 3e
       0.12738758 -0.03870172 -0.0023277244 0.13141343
000270 8f 07 80 3b c4 99 d6 bd 49 1c de 3d 34 21 4a bd
       0.003907151 -0.10478547 0.10845239 -0.04934807
000280 c7 85 d0 bd 74 94 a9 bd 89 ca ba 3d fe 7e 51 bb
       -0.10181766 -0.08280268 0.09120662 -0.0031966562
000290 dc 63 8b 3d 81 7e b3 bd 42 d0 93 3d 79 36 0a 3c
       0.06806156 -0.08764363 0.072174564 0.008435839
0002a0 69 36 87 bd 0c b7 ec 3d ce d4 bf 3d 9b fe 11 3c
       -0.06602175 0.11558351 0.09366761 0.0089108
0002b0 3a 32 4f bb b7 f9 aa 3d 4b 0a b5 bd ea 7f 0b 3d
       -0.003161563 0.083484106 -0.08839854 0.034057535
0002c0 f5 6c c7 3c 41 b8 db bc 43 5e a4 bd 0f ee 99 3c
       0.024343947 -0.026821258 -0.080257915 0.018790273
0002d0 26 ae e9 3b 39 36 f3 3d 05 f9 3a 3d 87 5b 86 3d
       0.007131356 0.118755765 0.04564764 0.06560426
0002e0 51 4c 6b 3d 54 d9 ba 3c cb 42 ca bd 98 f7 be bd
       0.057445828 0.022808708 -0.09876021 -0.093245685
0002f0 29 78 df bd 4c ec d9 bd 7b 61 0d 3d ae e4 fc bd
       -0.109115906 -0.10640773 0.034516793 -0.12348305
000300 b4 07 05 3d fb 37 9e bd 15 5c e4 bd ac f2 17 3c
       0.03247805 -0.07725521 -0.11150376 0.009274166
000310 85 28 9c bd 58 73 ac 3d 6d e6 d7 3d ab f8 e9 3d
       -0.07624916 0.084204376 0.10541997 0.11424383
000320 80 4a 84 bd 0a 90 d4 bd 68 ba 11 bd 48 e2 ae 3d
       -0.06459522 -0.10379036 -0.03557816 0.085392535
000330 0a 56 e4 3d 11 2f 09 3e 65 8e ca 3c 76 22 cd bd
       0.11149223 0.1339686 0.024726102 -0.100163385
000340 1f 7a ee bd 7c c0 ce bd a3 16 dc 3d ec a9 3e bd
       -0.116443865 -0.10095307 0.10746505 -0.04654877
000350 80 1b f9 3c 99 44 90 bd bd b2 e9 bd a0 9b be bd
       0.03040862 -0.07044334 -0.11411045 -0.09307027
000360 f9 35 63 3b 8b f3 ec 3d 03 7d a7 3d e7 76 b0 bc
       0.0034669621 0.1156989 0.08178141 -0.021541072
000370 06 ce f2 3d 64 10 08 3d 4e b8 b2 3d 3f b3 dd 3d
       0.11855702 0.033218756 0.087265596 0.10825204
000380 ca aa e2 3d df 3f de 3c 61 f9 1b bd 0f 7b 37 3d
       0.11067732 0.027130065 -0.038079623 0.044795092
000390 f4 92 a1 bd db 6a c9 bd e8 62 37 3d ae c6 bc 3d
       -0.07889357 -0.09834834 0.04477206 0.09217583
0003a0 82 cb d8 3c c0 89 09 be b4 e4 84 bd 81 0b 00 3e
       0.026464228 -0.13431454 -0.06488934 0.12504388
0003b0 90 1d b8 3d b2 cd 19 3d 43 e8 b9 bd ef 50 fe 3b
       0.089900136 0.037549682 -0.090775035 0.007761113
0003c0 46 64 16 3d 28 06 d1 bd c5 7c c9 3d d6 d6 99 bc
       0.036716722 -0.10206252 0.09838251 -0.0187792
0003d0 55 21 9f bd 77 11 b4 3d 25 29 e8 bd 6a e4 38 3d
       -0.077700295 0.08792394 -0.11335973 0.045139708
0003e0 46 1f ae 3d f6 c9 fd 3d 0d 74 3d ba 94 69 c9 bd
       0.08502059 0.123920366 -0.0007227071 -0.098345906
0003f0 b0 d6 c1 bd 23 2b ed 3d 88 26 a6 3d 9b 8d e4 bd
       -0.094647765 0.11580493 0.08112818 -0.111598216

encoder.0.bias f4 [128]
000000 ca 9f 65 bc 8c 03 81 bd 78 e9 29 3d df 12 bd 3d
       -0.014015147 -0.06299505 0.04148242 0.09232115
000010 10 72 cd 3d fd 82 93 3d 49 19 08 bd a1 14 7d bd
       0.10031521 0.072027184 -0.03322724 -0.06178725
000020 00 b6 9e bc 4a ba cb 3c 22 c9 c9 bd 5b 45 9d 3d
       -0.019373894 0.024869103 -0.09852816 0.07679244
000030 23 36 56 bd b2 cb cc 3d 76 e4 e0 3d 7b 6a 6b 3d
       -0.052297723 0.09999789 0.109810755 0.057474595
000040 66 a1 66 3d 04 11 0a bc 05 db e8 3b 88 c6 e9 bd
       0.056306265 -0.008426908 0.0071061873 -0.1141482
000050 d5 25 ca 3c e2 e9 11 3d 6c e2 81 3d 37 1a ce bd
       0.024676243 0.03562344 0.06342015 -0.10063594
000060 9a d3 43 3d b9 aa 44 3d 33 54 f9 3d ce fd 3f 3c
       0.04780922 0.048014376 0.12174263 0.011718227
000070 c9 64 5d 3c e7 a2 80 3d ec 81 42 bd ea 5c 03 3c
       0.013512799 0.06281071 -0.047487184 0.008017758
000080 6b a4 9b bd f5 b0 b4 3b 68 2e e7 bc d1 37 ca bd
       -0.075997196 0.005514259 -0.02822037 -0.098739274
000090 8a 94 fb 3b 74 f0 a8 bd 86 73 9c 3d 83 52 f8 3d
       0.0076776193 -0.08248988 0.07639222 0.12125113
0000a0 37 b4 fd 3d e3 e4 d2 bd 4d 58 91 3d 64 55 a5 bd
       0.12387889 -0.10297563 0.0709692 -0.080729276
0000b0 24 e0 07 3d 0e be 72 3d 64 e3 aa 3d e1 3f 00 bd
       0.03317274 0.05926328 0.083441526 -0.03131092
0000c0 1b de 7e 3d 65 28 08 be 46 5a ea bd ac d9 76 bd
       0.062223535 -0.1329666 -0.114429995 -0.06026618
0000d0 80 b8 0a 3d d4 83 5f bd 00 b7 d7 bd 09 f6 51 3d
       0.03386736 -0.05456908 -0.10532951 0.051260028
0000e0 8f 87 08 be 28 05 e1 bd 1f a2 92 bd be 01 55 bd
       -0.13332961 -0.109873116 -0.071598284 -0.052003615
0000f0 94 1b f0 bd 36 a6 ef bd 1f c9 a3 3b 45 93 b6 bd
       -0.1172401 -0.11701624 0.0049983407 -0.08914808
000100 fa b5 7d bc 34 e9 85 bb 33 29 b1 bd fd a6 b9 bd
       -0.015485281 -0.004086638 -0.08650436 -0.090650536
000110 d6 eb a6 3d 43 d6 bd 3d ec bd be 3d 37 37 6a 3d
       0.08150451 0.09269383 0.093135685 0.057181563
000120 34 1c e6 bc bc 09 84 3d ac c2 d3 bd ee 34 8a 3d
       -0.02808962 0.06447169 -0.10339865 0.06748377
000130 07 71 ad 3b a2 17 f2 bd 1d a0 a3 3d f3 cd 03 be
       0.005293015 -0.11820914 0.079895236 -0.12871532
000140 f7 c9 e0 3d a4 06 2b bc 64 d2 8b 3b c6 c2 ec 3d
       0.10976022 -0.010438595 0.004267024 0.115605876
000150 c7 7f 4d bd a9 6e fa bd 10 53 aa 3d 04 3d 71 3c
       -0.050170686 -0.12228138 0.08316624 0.01472402
000160 aa 7f 47 bd 17 52 2f bd 50 78 23 bd 37 67 72 3d
       -0.048705734 -0.042802896 -0.03990966 0.059180465
000170 ee f9 02 be a6 35 76 3d 33 0b 57 3d c4 05 42 bd
       -0.12790653 0.060109757 0.052500915 -0.04736878
000180 9d 05 10 3d 17 86 e8 3d 24 f8 e0 3d 8a 7a da 3d
       0.035161603 0.113537006 0.10984829 0.10667904
000190 c6 e1 16 bd b3 43 ab 3d 90 fd 8d 3d cd 83 fb 3d
       -0.036836408 0.08362522 0.06933129 0.122809984
0001a0 2f 99 cd bd 9c e0 63 bd 6c 43 25 bc 79 17 28 3d
       -0.10038983 -0.055634126 -0.010086875 0.04103801
0001b0 6c f3 c0 bd 62 ba 86 bd 07 9c c8 bc 9b c4 2c bd
       -0.09421429 -0.065785185 -0.024488462 -0.042179685
0001c0 e3 6f e6 bc 92 03 b2 3d 92 1a 91 3d fc 6e d6 3c
       -0.028129524 0.08692087 0.07085146 0.026175968
0001d0 c6 0f 9b 3d 51 8d 5e bd 12 88 e4 bd 82 a5 ad bc
       0.07571368 -0.05433399 -0.11158766 -0.021197084
0001e0 f0 9e f2 3c c1 7d 9d 3d b3 20 cf bd a3 77 0f 3c
       0.029616803 0.07690001 -0.10113659 0.008756551
0001f0 d9 41 fb bd 15 6e a7 bc 53 0e b6 3d d6 48 c2 bd
       -0.12268419 -0.020438233 0.08889451 -0.094865486

decoder.0.weight f4 [64, 128, 3, 3]
000000 2b ae 54 bc 9b 4d c9 3b d9 30 1f 3c c4 69 50 bc
       -0.012980978 0.0061432845 0.009716236 -0.012720529
000010 ea 07 36 3c 55 f4 32 bc 2e e5 87 bb 9f 99 29 bc
       0.011110285 -0.010922511 -0.0041471934 -0.0103515675
000020 9e f7 ee 3b f7 b2 c1 3b 5d 62 e4 bc 71 19 35 3c
       0.007292702 0.005911227 -0.027878935 0.011053429
000030 9f 13 86 3b 49 d6 20 bd 06 23 8e bc 74 f4 d9 3a
       0.0040916945 -0.03926686 -0.017350685 0.0016628639
000040 1e e3 0d bc 24 fc ea bb 76 22 aa 3b c4 55 9a 3c
       -0.008660106 -0.007171171 0.0051920963 0.018839724
000050 0d 02 1b 3c 67 d7 09 bd aa 32 e9 3c 9d e3 32 3c
       0.009460938 -0.03365269 0.028466541 0.010918525
000060 cf 21 dc 3c 9f 70 bc 3c 3c bf d5 ba 0d 4b 2d 3c
       0.02687159 0.02300292 -0.0016307603 0.0105769755
000070 c5 fb ad bc 83 70 b0 3c f1 bd 33 bc e8 f0 a4 bc
       -0.021238217 0.021538025 -0.0109705785 -0.020134404
000080 32 65 a1 bc fe b8 03 3d db 5e 9d bc 34 7f 01 bc
       -0.019701574 0.032158844 -0.01921027 -0.007903863
000090 cb 8a 90 3c ea d5 35 bb 3b 65 3d 3c ac df 31 3c
       0.017644307 -0.002774591 0.01155978 0.01085655
0000a0 05 3e ef 3c 9c 74 76 ba 42 2c d9 39 8b 1f e2 bb
       0.029204378 -0.00094015314 0.0004142244 -0.006900733
0000b0 da cb 23 3c 67 68 6a bc bb 2e b7 3c fb 64 75 bc
       0.0099973325 -0.014307118 0.02236115 -0.014977689
0000c0 3e dc 89 ba 8b e8 a4 3b 8b 72 d5 3c 90 4c c3 3c
       -0.0010517908 0.005032604 0.026055595 0.023840219
0000d0 6f 10 b9 bb 8c 7f a8 ba 42 70 d8 3b d3 ca 22 3c
       -0.005647711 -0.0012855395 0.006605179 0.009936052
0000e0 60 1f de 3b 0d 03 de bc 71 cb 21 3c 82 a6 56 3c
       0.0067786425 -0.027101064 0.009875164 0.013101222
0000f0 ea 1d 35 3a 73 77 75 3c 19 7c 83 3a 69 e6 29 3c
       0.00069090596 0.014982092 0.0010031491 0.0103698755
000100 46 98 8b bc 80 d3 8f bc 7d 78 70 bc bb a2 f7 3b
       -0.017040383 -0.017556906 -0.014677164 0.007557241
000110 b5 0f 8a bc b6 83 07 3c bf 56 b5 3c 32 54 eb 3b
       -0.016853193 0.008271148 0.02213609 0.0071816677
000120 6b e0 cb 3c 41 35 06 3d ef df 9b 3c 98 94 da 3c
       0.024887284 0.03276563 0.019027678 0.026682183
000130 90 2f d9 bc 35 23 03 3c 15 aa 93 3c 70 a4 c5 3c
       -0.026511937 0.0080039995 0.018025437 0.024126261
000140 ea fd 3c bb 99 cd a4 bb cc 71 d8 bb 4d ee 3e 3c
       -0.0028837868 -0.005029392 -0.0066053625 0.011653495
000150 d4 b3 5d bb 44 97 7c 3b 7e 53 ab bc 00 38 ad bc
       -0.003382911 0.003854231 -0.020913836 -0.021144867
000160 92 e8 5f 3c 3e 0b 9f 3c b5 1d e5 bc 9e 7b a6 3c
       0.013666289 0.01941454 -0.027968267 0.020322617
000170 e3 fa 7c bc d3 7c 12 3d 39 a2 22 3d 86 91 5f bc
       -0.015440675 0.035763573 0.03970549 -0.013645535
000180 7d 66 e4 3c 0c 6e a2 bb cd 5f bf 3c ec 69 a3 bc
       0.027880901 -0.0049569663 0.023361111 -0.019947968
000190 b9 54 c5 3c f5 b8 82 3c ef a9 d5 bc a1 fc c6 bc
       0.02408825 0.015957335 -0.026082007 -0.024290385
0001a0 ae 86 42 bc ce e0 2b 3c 79 32 04 3c 6a 32 89 bc
       -0.01187293 0.010490609 0.008068674 -0.016747672
0001b0 e2 d1 88 bc 71 5f bf 3c 28 e7 c7 bc 21 55 21 bc
       -0.016701642 0.02336094 -0.024402216 -0.0098469565
0001c0 75 bf 75 3c 24 10 16 3c 8d 55 d1 3c 65 c0 58 ba
       0.01499926 0.009159122 0.02555349 -0.0008268415
0001d0 64 fb 1e 3d bd c0 c8 bc 25 eb 97 3c 10 0c a0 bc
       0.038813964 -0.024505967 0.018544743 -0.019537002
0001e0 e9 71 9e 3c 40 60 f2 3b 8d fa 05 3d 5c 2b 03 bc
       0.019341426 0.007396728 0.032709647 -0.008005943
0001f0 1b c6 99 bc 8e 48 c7 bc f0 40 15 bc dc a5 2e bc
       -0.018771222 -0.024326589 -0.009109721 -0.010659661
000200 99 98 98 bb 71 bf b8 bc 55 77 28 3d 05 7c 4d bc
       -0.004656863 -0.022552224 0.04112943 -0.012541776
000210 3f 98 b7 bc dd ba ae bc 69 8c dc 3b 04 56 16 3d
       -0.022411464 -0.021329338 0.0067306054 0.036703125
000220 5f 51 96 3c 06 9a 45 3c 9d bc 8e bc 58 25 3f 3c
       0.018349348 0.012060648 -0.017423922 0.011666618
000230 fd 9f 96 ba 7f 5d 64 3c 80 bb 80 3c d4 49 07 3c
       -0.0011491772 0.013938307 0.015714407 0.008257348
000240 6f 07 d4 3c ba 47 e2 bc fc 54 db 3b 62 f6 31 3c
       0.02588245 -0.027622093 0.0066934805 0.010861965
000250 7a 49 da bc 6d 7f ad bc 83 c5 6e bb a4 ce d1 bb
       -0.026646364 -0.021178925 -0.0036433644 -0.0064028073
000260 4f 94 4f 3c 8f 97 6b 3b 51 2f ac 3c 11 3f 41 3c
       0.012669637 0.003594849 0.021018656 0.011794821
000270 4b 9a c5 bc a2 c8 5b bc 5b b3 52 bc 13 7b 89 bc
       -0.024121424 -0.013414534 -0.0128601445 -0.01678232
000280 31 ed b7 3b 0c ba 9a bc 74 4f 04 bd 42 50 ad 3c
       0.005612992 -0.018887542 -0.032302335 0.021156434
000290 05 ca c3 bc ee 14 2c bc 68 71 09 3d b5 75 20 3c
       -0.023900041 -0.010503037 0.03355542 0.009793689
0002a0 ac 42 9e bb 19 73 02 3d 2f 37 0c 3c b7 38 6d bc
       -0.0048297253 0.031848047 0.008558079 -0.014478854
0002b0 ae 70 8f bb 1f c6 c1 bc 36 c3 f6 bb 01 79 f5 3b
       -0.004377446 -0.023654042 -0.007530595 0.0074912314
0002c0 c2 ed e0 bc a8 4b 38 39 af b4 af ba 71 c9 90 bc
       -0.027457122 0.00017575792 -0.0013405288 -0.01767418
0002d0 63 79 6e bc 9b 2e 45 bc b4 45 34 bc 7f 0e b9 bc
       -0.014555308 -0.012035037 -0.011002947 -0.02258992
0002e0 21 21 23 bc fa 11 a6 bb 3d d6 0e bc ef 9e 19 bc
       -0.009956629 -0.005068061 -0.008718071 -0.009376272
0002f0 48 37 4e bc 85 8f 01 bd 70 8b 1f 3c ab 64 f2 3c
       -0.012586422 -0.03163101 0.009737834 0.029589018
000300 95 29 96 bb b6 1d b5 3b 91 86 24 bc 9c 17 da bb
       -0.0045825937 0.0055272235 -0.010041849 -0.0066556465
000310 64 da 97 3c 40 dd 39 bc 09 e5 6a 3c 14 b4 a1 3c
       0.018536754 -0.011344254 0.014336833 0.019739188
000320 15 72 a9 3c c1 cf f9 bc e7 72 c8 bc 49 13 bb 3c
       0.020684281 -0.030494573 -0.024468852 0.022836344
000330 f5 17 c3 bb 34 e2 bf 3c f7 41 39 3c bd 0c 9c 3c
       -0.0059537836 0.023423292 0.011307231 0.019049043
000340 a9 7d a7 3c be b8 c2 3c bd d8 0f bd 10 8c 14 bd
       0.020445662 0.023769733 -0.035118807 -0.036266387
000350 f8 d7 69 bc bb 5d fe bc c6 85 6c 3c 15 72 b4 3c
       -0.014272682 -0.031050554 0.014436191 0.022027055
000360 bf c1 aa bc 06 78 91 3c 7e 4f 3a 3c a3 71 ac 3c
       -0.020844338 0.017757427 0.0113714915 0.02105028
000370 80 d6 f7 3c c5 43 b6 3c 2e b1 a7 3c b5 ac b2 3c
       0.030253649 0.022249112 0.020470228 0.021810869
000380 c2 fb ef 3b 6f a0 94 3c 57 45 07 3c 42 4d 24 bc
       0.007323713 0.018142907 0.008256278 -0.010028185
000390 14 27 7a bb aa b0 8c bb ad 76 ff 3b ea a8 b5 3c
       -0.0038170265 -0.004293521 0.0077961297 0.022175271
0003a0 14 4e 99 3b 2b 95 41 3c 30 6f ad bc bb a7 ad 3c
       0.004678497 0.01181535 -0.021171182 0.021198144
0003b0 e1 6a c4 3c 0b 17 f8 3c 01 76 64 3b ca 9d 78 ba
       0.023976745 0.030284425 0.0034860375 -0.00094839616
0003c0 df 65 2d bc cc 09 22 bd 97 79 df 3c bc fd b0 3b
       -0.01058337 -0.039560124 0.027279658 0.0054013412
0003d0 2b a4 27 3d d5 8c 9e bb 78 ac 7d 3a d4 bd 33 bd
       0.040928047 -0.004838566 0.0009676884 -0.043882206
0003e0 b8 b0 f0 3c ff 4e cb bc 92 00 a2 3c c7 01 99 3b
       0.029381141 -0.024817942 0.019775663 0.0046694013
0003f0 5a f1 4e 3b 36 61 80 3c 21 32 af 3c 88 01 91 3b
       0.0031576962 0.015671354 0.021386208 0.0044252314

decoder.0.bias f4 [64]
000000 46 8b d4 3c 3b 1f 86 ba 3b 0f 97 bb 35 fb 86 3c
       0.025945317 -0.0010232696 -0.00460997 0.016477207
000010 0c f8 a5 3c ed 26 c6 3b 3f f5 a4 bc f7 53 0e bc
       0.02025988 0.006047121 -0.020136474 -0.008687011
000020 a9 0e 1e 3d 5e 1c ba bc c2 a0 db 3c cb 75 18 3d
       0.0385882 -0.022718605 0.026810054 0.03722171
000030 59 b1 96 3a e1 5e c1 bc 98 54 f3 3c 61 2c 82 bc
       0.0011496946 -0.023604812 0.029703423 -0.015890302
000040 fb 63 f0 bc 6d 77 fd b9 67 35 80 bc 44 d6 06 bc
       -0.02934455 -0.000483449 -0.015650464 -0.008229796
000050 f0 a0 68 bc 0d 6b 6a 3b 11 ac 51 3c 3b e8 1c 3d
       -0.014198527 0.0035769374 0.0127973715 0.03830741
000060 98 09 60 3b 61 30 da 3b 13 98 24 39 66 94 d6 3c
       0.0034185406 0.0066585992 0.00015696911 0.026193809
000070 2c 54 ac 3b 78 b8 9b 3c ed b7 86 bc 41 cc 21 3d
       0.0052590575 0.01900886 -0.016445125 0.039501432
000080 e2 bb 76 bc bd 95 77 3c 9a bd 98 ba 82 8c 41 3a
       -0.015059443 0.015111384 -0.0011653185 0.0007383303
000090 87 17 27 bb 24 4c 4f 3c 62 bb a0 bb bc d8 7b bc
       -0.00254962 0.012652431 -0.0049051503 -0.015371498
0000a0 11 e6 5b 3b 60 6d dd 3c 86 4c e8 3c 2e 51 d5 ba
       0.0033553878 0.027029693 0.028356802 -0.0016274804
0000b0 0c b2 bd 3c a1 8b 84 bc 74 22 80 bc aa db b3 3c
       0.023156188 -0.016179862 -0.015641429 0.02195533
0000c0 12 c2 02 bc 7e 70 ea ba 0c ae 17 3c 70 eb 31 3a
       -0.00798084 -0.0017886308 0.009257805 0.0006787097
0000d0 29 e4 10 3c 63 5e 05 3d 4a a4 59 3c ab 8c 25 3b
       0.00884346 0.032560717 0.0132837985 0.0025260847
0000e0 6f 3d c7 3c a4 4d f1 3c cc 9d 16 bc fd 42 bf 3c
       0.024321286 0.029455967 -0.009192895 0.023347372
0000f0 72 f0 a9 3c 1c 38 aa bc 2f 2a e8 ba f1 25 e1 3c
       0.020744536 -0.020778708 -0.0017712767 0.027483912

decoder.3.weight f4 [3, 64, 3, 3]
000000 7a d0 da 3c 7e eb 04 3d c1 c4 1e 3d 04 8e 3c 3c
       0.026710737 0.032451145 0.038761858 0.011508469
000010 70 1d d4 3a 32 49 d8 bc c3 32 2a bc ac db 80 bc
       0.001618309 -0.02640209 -0.010388079 -0.015729748
000020 d7 6f 1c bd e8 c9 a7 bc 5c 91 cc 3b 44 55 f5 bb
       -0.038192596 -0.020482019 0.006242914 -0.007486971
000030 37 46 03 3d 4e 10 1d 3d 37 7a c5 3c a4 c8 01 3d
       0.032049384 0.038345627 0.024106128 0.031685486
000040 7c 34 51 3c fd ff ed 3c 08 dd a1 bc 99 00 e6 bc
       0.012768861 0.029052729 -0.019758716 -0.028076457
000050 42 e1 73 3c 77 b3 97 bc ce f6 34 bd b8 6c f2 3b
       0.014885249 -0.018518193 -0.044180684 0.007398214
000060 19 38 9d 3c 07 55 04 3d 28 13 c4 3c cc 9b 27 3d
       0.019191789 0.03230765 0.023934916 0.040920064
000070 b5 2f 22 bd 48 0a e1 bc 6d 27 00 3d 2b 56 57 3b
       -0.03959628 -0.027470723 0.0312876 0.0032857757
000080 6f 62 1c bc e3 e4 a7 3c 9f 69 4d bb 0b 99 ec 3b
       -0.009544953 0.020494884 -0.0031343473 0.0072203926
000090 dc 24 f9 3b 84 92 d9 bb 5b 97 8e 3c 31 3d 9e bc
       0.007603271 -0.0066397805 0.017406156 -0.019316288
0000a0 10 d1 3f 3d ba 28 23 bb 85 a3 46 bb ab 81 cb 3c
       0.046830237 -0.00248961 -0.0030309868 0.024842104
0000b0 97 a8 9d ba 12 b4 cb bc 0c d7 de 3a 18 3d b8 bc
       -0.0012028393 -0.024866138 0.0017001345 -0.02249007
0000c0 01 cf b3 bc 75 6e 8d bc a0 74 1b bd 66 0d 22 3d
       -0.021949293 -0.017264584 -0.03795302 0.03956356
0000d0 30 5d 49 bc 6e e9 0d 3d fd 11 2a 3d 42 19 13 3d
       -0.012290284 0.034646444 0.04152106 0.03591276
0000e0 4a 03 08 3c a5 47 64 3c 22 a4 1c bd c9 f6 e5 3c
       0.008301565 0.013933097 -0.038242467 0.028071778
0000f0 88 ec 8e bc b4 81 8e b9 61 1d 9a 3c b0 b2 29 bc
       -0.017446771 -0.00027180987 0.018812837 -0.010357544
000100 19 af 68 bc 58 31 31 bc cd c0 b3 3c a7 5c ec 3c
       -0.014201903 -0.010814987 0.02194252 0.028852774
000110 f7 80 29 bc cb a6 5d 3c 62 87 00 3c 76 9e 49 bc
       -0.010345689 0.013528536 0.007844778 -0.012305846
000120 ae 8c fa 3c 99 71 24 3c 1e a9 d5 bc 9c 94 2c bd
       0.03058466 0.010036849 -0.026081618 -0.042133912
000130 3d f0 6c bc 75 4a 97 3b ae 20 21 3b e3 39 b5 3a
       -0.014461574 0.0046170303 0.002458613 0.0013826456
000140 55 68 61 bc 6a 95 c5 ba 97 e3 be 3b 39 bf 97 bc
       -0.013757785 -0.0015074436 0.0058254707 -0.0185238
000150 74 ed 05 3d 8e 1e 73 bc 9d 8c e3 3c e0 4d a5 3b
       0.032697156 -0.014838828 0.02777701 0.005044684
000160 a3 9c ab 39 31 c7 06 bd ca f2 b0 3c 19 09 8f 3a
       0.00032732365 -0.032904807 0.021600146 0.0010912745
000170 50 86 cd 3c 4b fb 27 bd 53 87 78 3c 79 59 30 bd
       0.02508846 -0.041011136 0.015168983 -0.043054078
000180 59 b7 2a bc 70 6b 40 bc a2 8f 89 bc ae 6f 8a bc
       -0.01041969 -0.011744365 -0.016792122 -0.016898956
000190 4c 31 0d bd de 44 b9 3b c9 e8 d5 3c a9 52 de 3a
       -0.03447084 0.0056539616 0.026111977 0.001696189
0001a0 81 33 9e bc 3d e2 a1 3c 6d 19 d7 bc bb 67 cb bc
       -0.019311668 0.0197612 -0.026257241 -0.024829736
0001b0 8d 2d 1a 3d dc 07 fb 3b 01 dd c5 bc 2d 73 c5 3b
       0.037641097 0.007660849 -0.024153234 0.006025693
0001c0 84 0b 58 3d 9c 0e 33 3c 6f 84 c5 bb 45 7f c7 3b
       0.052745357 0.010928776 -0.00602775 0.0060881698
0001d0 2d 0f e0 bc 42 40 59 ba e3 95 25 3d 1a b9 fc bc
       -0.027350986 -0.0008287468 0.040426146 -0.030849982
0001e0 81 24 a5 3c 2f ba 78 3d 5e 5e 69 bc 04 02 81 3c
       0.020159008 0.060724434 -0.01424369 0.015748031
0001f0 4a 99 42 3a 59 b9 15 bc 7f d8 15 bc 71 07 54 3c
       0.00074233545 -0.009138429 -0.009145855 0.012941227
000200 e3 9e 8a 3c 4f 2d 15 bc dc 7f 04 bd 50 00 a7 bc
       0.016921466 -0.009105041 -0.0323485 -0.020385891
000210 a2 3b ab bc ff 8e 34 bd 4c a1 60 37 a7 ef ee 3c
       -0.020902459 -0.044081684 1.3388995e-05 0.02916701
000220 4e fd cc 3c c0 78 86 3c 13 c5 b2 bb 4a c2 b1 3c
       0.025023129 0.016415 -0.005455622 0.02169909
000230 e2 fb f1 bc 70 c9 e6 bc bc 1c 11 3d d0 d5 31 bc
       -0.029539052 -0.028172225 0.035427794 -0.0108541995
000240 a1 80 8c 3c a4 8b 46 bc 6e 58 33 3c ad d1 90 3c
       0.017151179 -0.012118254 0.010946376 0.017678106
000250 97 aa 04 bd 70 da 94 3b 26 74 a5 bc a6 b0 02 bd
       -0.03238925 0.0045426413 -0.020196985 -0.031906746
000260 63 8a d2 bb c9 98 ba 3b 87 19 bd bc 22 61 3b bc
       -0.0064251884 0.005694483 -0.023083461 -0.0114367325
000270 a9 7b 72 3b da 83 ca bc 5c 51 d1 bc 8d 8d 9a bc
       0.0036999977 -0.024721075 -0.02555149 -0.018866325
000280 7b 92 b7 3c 0c 32 fc bc 96 a7 24 3d 4b 1c 27 3d
       0.022408715 -0.030785583 0.040198885 0.040798467
000290 a5 00 e0 bc b1 30 1c 3d 5b 32 06 3c 47 c3 33 3d
       -0.027344057 0.038132373 0.008190717 0.043887403
0002a0 e6 70 eb bc 26 d0 c8 bb 54 6a 7f 3c ac 66 00 bc
       -0.028740358 -0.006128329 0.015589315 -0.007836979
0002b0 12 8b df 3c 3e 91 ca 3c c4 c3 6c 3b fd 22 ec 3c
       0.027287994 0.02472746 0.0036127428 0.028825277
0002c0 b5 69 2b bd d5 55 04 bd dc 4e 86 3c 0f f7 23 bd
       -0.041848857 -0.03230842 0.016395025 -0.040030535
0002d0 ae d1 24 bd 3b 43 4f bd 95 47 c4 3c f5 d2 37 3d
       -0.04023903 -0.050601225 0.023959914 0.04487892
0002e0 0f 78 06 3d e1 35 42 3c 45 ea 8b 3b a0 49 97 bc
       0.03282934 0.011853666 0.0042698705 -0.018467724
0002f0 da f6 06 bd bb d7 a2 3c 75 c2 c8 3a fa 88 fe 3a
       -0.03295026 0.019878259 0.0015316742 0.0019419484
000300 fd 2e fd bc f2 10 2d bd 0d 4c f4 3c 7d cb fb bc
       -0.030906195 -0.04225249 0.02982142 -0.03073668
000310 f7 f9 32 3d 60 bb 79 3c 25 a5 90 bc a3 9e 22 bd
       0.043695416 0.015242428 -0.017656872 -0.03970207
000320 67 0b fc ba 73 2e 3b b9 27 d0 8f bc d6 93 44 3b
       -0.0019229472 -0.00017851013 -0.01755531 0.0029995344
000330 d9 0b 27 bd 29 be 87 3c 62 e7 7f 3c 07 96 b1 bb
       -0.040782783 0.016570168 0.015619131 -0.005419496
000340 42 24 14 bd 60 34 ee 3c 98 f9 05 bb a4 ce d8 3b
       -0.03616739 0.029077709 -0.002044296 0.0066164304
000350 f1 d3 2c bd 6c 63 bb 3c c6 9f e5 3c 32 e4 d1 3b
       -0.04219431 0.022874556 0.028030287 0.006405377
000360 b3 5f fb 3c 56 3d 9f 3c a5 d8 5a 3c 4d 0e 0d 3d
       0.030685281 0.019438427 0.013357316 0.034437466
000370 3d dd 22 bd 3b c9 b0 bc b4 1f fc bc f0 b4 cc 3c
       -0.03976177 -0.02158033 -0.030776836 0.024988621
000380 08 2d 69 3a 94 cf cb 3b 98 5e 87 3c 5a d5 0d 3d
       0.0008894955 0.0062198136 0.016524598 0.034627296
000390 e6 b8 de bc e1 4a 0f bb 06 0a 07 3d e2 b6 24 bd
       -0.027187776 -0.00218647 0.032968543 -0.040213473
0003a0 f1 f9 3b 3d 0e 73 ee bc ba 2c 22 bd 4f 61 88 3c
       0.04589266 -0.029107597 -0.039593436 0.016647963
0003b0 4e b2 00 3d f2 48 66 3c 6c fe aa 3c ff 0b d4 3c
       0.031420045 0.014055477 0.02087327 0.025884626
0003c0 32 08 9c 3c ea 73 6e 3c e8 8f 97 bc c5 30 89 bb
       0.019046877 0.014554003 -0.018501237 -0.004186722
0003d0 d7 73 ef bc 1b 7b 92 3c e6 d1 c6 3c 34 d3 bc bc
       -0.029230041 0.017880967 0.02427001 -0.023049928
0003e0 66 ea 98 3b 29 d0 05 3d 1e c7 31 bd fe 89 e1 3c
       0.0046666143 0.03266922 -0.043402784 0.02753162
0003f0 aa 1d 56 bd 74 a4 4b bd 52 2d 57 b9 19 7e 39 3c
       -0.052274384 -0.04971738 -0.00020520881 0.011321568

decoder.3.bias f4 [3]
000000 31 a8 9c 3c 1e 6d c6 3c 19 53 06 3c
       0.019123169 0.024221953 0.008198523
