frame_interpolation_model_BETA.pth (torch, 333972 bytes, 6 tensors)

encoder.0.weight f4 [128, 6, 3, 3]
-0.012136954 -0.0054624625 0.058335997 0.10690662 -0.1191746 0.11797257 -0.12323849 0.0971224
0.029794907 0.110333905 -0.07290226 0.12577479 0.11300928 -0.12808724 -0.096447945 -0.024169173
0.104439534 -0.061385717 0.017996041 0.06516183 -0.104641736 0.055556968 -0.0549832 0.0996684
0.08354659 -0.11002048 0.110191554 0.070646375 -0.1057394 0.056844402 -0.12247443 0.06253204
-0.064149015 0.06406944 -0.004316093 0.052758373 -0.030806584 -0.104526974 -0.10110295 -0.10712007
0.01645249 -0.071316294 0.077246845 -0.07069298 -0.043223053 -0.03721594 -0.0077483994 -0.034779854
-0.14157686 0.016661795 0.041007165 0.058336534 -0.022824613 0.107874446 -0.123983584 0.11422787
0.09826659 -0.123325795 -0.097924605 0.031855773 0.10785635 0.026473152 0.07141 -0.10477183
-0.025457852 0.12532184 0.05233397 0.011898815 -0.089532025 0.03883328 0.022567855 0.006915179
-0.12123201 -0.04988951 -0.029340917 0.110196464 -0.013889756 -0.053626306 -0.088976696 0.041700024
0.04202501 0.023707114 0.045667358 -0.09154934 0.11236468 0.09187709 -0.094731934 -0.11481644
0.09437722 -0.039605837 0.08466327 0.017511027 0.12878728 0.057503734 -0.12040395 -0.11526681
-0.03254983 -0.11472679 -0.09880693 -0.07852498 0.06767336 0.08318628 0.10895924 0.10872021
0.023500755 -0.07110366 0.076534316 -0.07867263 0.0074866205 0.0009016783 0.0041739964 0.07199586
0.13866928 0.01251814 0.05772443 0.046180267 0.06928754 -0.06611108 0.049812883 -0.10274886
-0.09078339 0.13773772 -0.07567093 -0.062812515 0.12119432 -0.06269229 0.128976 0.04627663
-0.123722 -0.07917553 -0.05666041 0.06889161 0.11496802 -0.09323544 -0.1055958 -0.07782823
-0.021519529 -0.06296656 -0.13051547 0.0054410202 0.039381426 -0.09213525 0.04679521 0.053031843
-0.036309186 0.033836428 -0.08218614 0.07756773 0.09846186 -0.046478268 0.04214524 0.13088873
0.11476469 -0.11126418 6.014054e-05 0.037909422 0.010061654 -0.012067035 0.12800045 -0.067665555
0.093326494 -0.10084222 0.08532169 0.054994207 0.12553854 -0.038120896 -0.08376826 -0.06446053
-0.04930141 0.033623893 -0.08691749 0.00986152 0.061657485 0.03369859 0.09217263 -0.01953963
-0.123233534 0.011477418 0.1030806 -0.025760824 -0.08379085 0.0062940842 -0.008140137 -0.0355693
0.12485026 -0.06124678 0.025783008 0.069583066 -0.13088706 0.10380403 -0.04956549 -0.05581616
0.043415364 0.022805559 0.024247102 0.0010550407 -0.12676708 -0.14185223 0.02636189 -0.005187884
-0.10365781 0.1092112 0.08587048 0.09498839 0.10212401 -0.043059416 0.07371668 -0.09785914
0.06708174 0.09606198 -0.1097972 -0.04304326 -0.065663196 0.10536434 0.032635167 0.018398048
-0.07473122 -0.09991409 -0.048338473 -0.018061044 0.0038071196 0.08622933 0.088618666 -0.015820043
-0.07379466 -0.024675434 0.016692683 0.107188806 0.07615639 0.06190777 -0.061180297 -0.09765384
-0.09309283 -0.06291622 0.056728557 -0.07100453 -0.060862318 -0.09619486 -0.0021208199 -0.033286292
0.08617863 -0.021716204 0.08517291 -0.048869625 0.011540179 0.022864426 -0.024326634 0.045065433
0.0028931454 0.09609764 0.080898724 -0.08154782 -0.06551969 0.015294369 0.10052529 -0.06662815
00000000: 13da 46bc 75fe b2bb baf1 6e3d dcf1 da3d
00000010: d011 f4bd 9a9b f13d 7664 fcbd 1ce8 c63d
00000020: 7314 f43c bef6 e13d c84d 95bd 1bcb 003e
00000030: 6971 e73d 4d29 03be 8086 c5bd 6efe c5bc
00000040: 65e4 d53d 976f 7bbd 6f6c 933c 9173 853d
00000050: 684e d6bd b48f 633d 1036 61bd f21e cc3d
00000060: 791a ab3d 6b52 e1bd 1cac e13d 0caf 903d
00000070: e68d d8bd add5 683d e0d3 fabd cc10 803d
00000080: 8f60 83bd d736 833d 036e 8dbb 2a19 583d
00000090: 175e fcbc 3d12 d6bd 100f cfbd c461 dbbd
000000a0: 5fc7 863c 470e 92bd 9833 9e3d 7bc7 90bd
000000b0: a80a 31bd be6f 18bd 49e6 fdbb 5275 0ebd
000000c0: 86f9 10be 517e 883c 21f7 273d 4af2 6e3d
000000d0: affa babc 47ed dc3d 1beb fdbd 4df0 e93d
000000e0: fe3f c93d 3c92 fcbd b28c c8bd 337b 023d
000000f0: cae3 dc3d 39de d83c 683f 923d 9d92 d6bd
00000100: fc8c d0bc 5e54 003e 255c 563d 3ff3 423c
00000110: 915c b7bd a50f 1f3d 39e0 b83c ba98 e23b
00000120: 7d48 f8bd f158 4cbd 5d5c f0bc afae e13d
00000130: dc91 63bc 42a7 5bbd 6a39 b6bd a5cd 2a3d
00000140: 6b22 2c3d 6c35 c23c b20d 3b3d 387e bbbd
00000150: 741f e63d 0e2a bc3d d102 c2bd e224 ebbd
00000160: d848 c13d bb39 22bd f063 ad3d 4973 8f3c
00000170: d0e0 033e 0989 6b3d 5996 f6bd 0111 ecbd
00000180: f852 05bd e1f5 eabd 4a5b cabd b4d1 a0bd
00000190: 5598 8a3d 925d aa3d 0626 df3d b4a8 de3d
000001a0: a884 c03c cc9e 91bd 06be 9c3d 1e1f a1bd
000001b0: 5352 f53b 9b5e 6c3a 05c6 883b 9172 933d
000001c0: 52ff 0d3e e218 4d3c 7470 6c3d 8527 3d3d
000001d0: a0e6 8d3d 3f65 87bd 9808 4c3d ff6d d2bd
000001e0: a4ec b9bd 1e0b 0d3e 5cf9 9abd d9a3 80bd
000001f0: ba34 f83d d164 80bd 4912 043e 908c 3d3d
00000200: f661 fdbd c826 a2bd bf14 68bd 0b17 8d3d
00000210: 5a74 eb3d 39f2 bebd 9c42 d8bd 6864 9fbd
00000220: b949 b0bc 9df4 80bd d9a5 05be 964a b23b
00000230: 6b4e 213d 68b1 bcbd 56ac 3f3d eb37 593d
00000240: f1b8 14bd 1198 0a3d 3551 a8bd d4db 9e3d
00000250: 5fa6 c93d ff5f 3ebd 7da0 2c3d b207 063e
00000260: c009 eb3d 79de e3bd 6a3f 7c38 e946 1b3d
00000270: a3d9 243c d0b4 45bc 8d12 033e 3d94 8abd
00000280: f621 bf3d 5e86 cebd 23bd ae3d 9b41 613d
00000290: 2d8d 003e a824 1cbd b28e abbd e203 84bd
000002a0: 46f0 49bd 35b9 093d cc01 b2bd 3692 213c
000002b0: 8f8c 7c3d 8807 0a3d 01c5 bc3d 9311 a0bc
000002c0: dd61 fcbd c80b 3c3c ec1b d33d 5d08 d3bc
000002d0: 8a9a abbd 9b3e ce3b 365e 05bc 1db1 11bd
000002e0: 7eb1 ff3d e7dd 7abd e336 d33c 9181 8e3d
000002f0: 4207 06be 3597 d43d 2f05 4bbd 7c9f 64bd
00000300: 4fd4 313d b9d2 ba3c dca1 c63c 4b49 8a3a
00000310: 3bcf 01be b641 11be e4f4 d73c 20ff a9bb
00000320: 8c4a d4bd 1faa df3d dddc af3d 4689 c23d
00000330: 6526 d13d 125f 30bd c5f8 963d 5f6a c8bd
00000340: 2762 893d 25bc c43d 5bdd e0bd 214e 30bd
00000350: 6d7a 86bd 42c9 d73d 74ac 053d 81b7 963c
00000360: af0c 99bd c29f ccbd 90fe 45bd c1f4 93bc
00000370: de80 793b 0199 b03d b47d b53d 0999 81bc
00000380: a821 97bd 2324 cabc 18bf 883c ce85 db3d
00000390: e2f7 9b3d 0093 7d3d 3198 7abd bdfe c7bd
000003a0: 74a7 bebd 38da 80bd 345c 683d d36a 91bd
000003b0: c44a 79bd d001 c5bd 74fd 0abb 3557 08bd
000003c0: 6c7e b03d 2ee6 b1bc 226f ae3d 842b 48bd
000003d0: 0513 3d3c 2d4e bb3c a648 c7bc 8896 383d
000003e0: ed9a 3d3b d7ce c43d 3bae a53d 8b02 a7bd
000003f0: 302f 86bd 3c95 7a3c 34e0 cd3d 5774 88bd

encoder.0.bias f4 [128]
0.023302326 0.039435904 -0.034116358 -0.09982713 0.068346426 0.120961346 0.07868744 -0.022211855
-0.11333688 -0.025934273 -0.0065845894 0.030814145 0.055677645 0.022633497 -0.123218484 0.1093638
-0.015109164 0.094947934 0.10176275 0.08961456 -0.11430169 -0.10563289 0.054976583 -0.07263598
0.041225366 -0.029050821 -0.03488082 0.11922813 -0.0026616745 -0.002670137 -0.011148484 0.0452261
-0.0084975995 -0.049526554 -0.03967111 0.0024804596 0.02951243 0.007933225 0.09319417 0.0488019
-0.089435294 -0.10458562 -0.010659598 -0.11499328 -0.019725373 -0.12223045 0.08065918 -0.108902365
0.049627014 0.039657053 -0.04728481 -0.09315766 -0.002500367 -0.04807687 0.12439418 0.09564732
-0.06644338 0.06327117 -0.13319226 -0.06544005 -0.11031474 0.06368691 -0.054860108 -0.09101764
0.026201667 -0.024535576 -0.021030439 0.033150684 -0.024941804 -0.08989748 -0.087120675 -0.0030475517
-0.101206355 0.030124672 -0.13496794 0.043305386 -0.08295159 0.04759009 0.08886469 0.07559001
0.031760357 -0.061980892 0.10041929 0.08301951 -0.106458776 -0.042559996 0.07017364 -0.11474763
0.015544122 -0.056347482 0.06738034 0.11132667 0.07192808 -0.044365108 0.084847406 0.051164817
-0.036503352 -0.10670229 -0.109275945 0.07526347 0.030622644 0.025511615 -0.0876427 0.06334333
0.052853845 0.0805937 -0.118248604 0.052900176 0.021660509 0.06664691 0.10069956 -0.04903707
0.10103483 -0.11714877 0.0034991933 -0.033482216 -0.087384835 -0.076940805 0.012926708 0.046893813
0.05508832 0.0677492 -0.083498396 -0.071016006 0.039018184 0.036412492 0.10534626 -0.07552247
00000000: 85e4 be3c 8b87 213d 98bd 0bbd 2b72 ccbd
00000010: 36f9 8b3d 95ba f73d e126 a13d a3f5 b5bc
00000020: 2b1d e8bd 1d74 d4bc 8ac3 d7bb f26d fc3c
00000030: 3e0e 643d e269 b93c f959 fcbd 21fa df3d
00000040: 6d8c 77bc 1074 c23d fd68 d03d d787 b73d
00000050: 0117 eabd 0e56 d8bd 202f 613d 2cc2 94bd
00000060: eedb 283d fdfb edbc 31df 0ebd e12d f43d
00000070: 7d6f 2ebb 77fd 2ebb 22a8 36bc 013f 393d
00000080: 8439 0bbc 5bdc 4abd 2d7e 22bd 358f 223b
00000090: 0dc4 f13c 5bfa 013c 96dc be3d 80e4 473d
000000a0: da29 b7bd fc30 d6bd 98a5 2ebc 9981 ebbd
000000b0: 1b97 a1bc f553 fabd a430 a53d 3408 dfbd
000000c0: b245 4b3d 6f6f 223d b8ad 41bd 71c9 bebd
000000d0: 32dd 23bb 41ec 44bd 60c2 fe3d bee2 c33d
000000e0: 7813 88bd 5194 813d 8d63 08be 6f05 86bd
000000f0: b2ec e1bd 486e 823d feb4 60bd 7567 babd
00000100: e1a4 d63c d5fe c8bc 0748 acbc 03c9 073d
00000110: c152 ccbc 2c1c b8bd 536c b2bd 6fb9 47bb
00000120: 4745 cfbd 04c8 f63c 0935 0abe fd60 313d
00000130: 86e2 a9bd d4ed 423d b1fe b53d efce 9a3d
00000140: 2617 023d addf 7dbd a1a8 cd3d 2206 aa3d
00000150: 0f07 dabd 6453 2ebd 33b7 8f3d ce00 ebbd
00000160: c6ac 7e3c 9ecc 66bd b4fe 893d 3dff e33d
00000170: 074f 933d 30b8 35bd 7ac4 ad3d 3392 513d
00000180: 8a84 15bd bb86 dabd 11cc dfbd bc23 9a3d
00000190: 57dc fa3c bcfd d03c 047e b3bd 26ba 813d
000001a0: 467d 583d 4f0e a53d 532c f2bd dbad 583d
000001b0: 6171 b13c 2d7e 883d 923b ce3d 18db 48bd
000001c0: 59eb ce3d b2eb efbd b952 653b a624 09bd
000001d0: d2f6 b2bd 2493 9dbd 8bca 533c ba13 403d
000001e0: 4aa4 613d 18c0 8a3d 3501 abbd d770 91bd
000001f0: 88d1 1f3d 4425 153d c8bf d73d 86ab 9abd

decoder.0.weight f4 [64, 128, 3, 3]
-0.017314825 0.02274376 0.011500057 0.012884503 -0.0013882967 -0.015799185 0.011759144 0.016827844
0.022225654 -0.016382579 0.030322358 -0.013927212 -0.020968365 -0.022111727 -0.017157035 -0.00034075006
-0.017068267 0.011006449 0.011557397 -0.024846172 0.01016135 -0.029208507 -0.019352827 -0.028284954
-0.024339015 -0.027768478 -0.011937085 -0.023899952 0.0016449386 0.009032808 0.0074439575 0.01127214
-0.004832596 0.014042181 0.0056202365 0.008588353 0.00017203049 -0.01656632 0.0058512604 -0.003865762
-0.03028678 0.013056341 0.0053960606 -0.0149950525 0.011492292 -0.006908894 -0.010400744 0.0027928639
-0.008282116 -0.02376483 -0.03235904 -0.016175356 -0.0027058348 0.0133631015 0.0042908387 -0.0071451175
-0.009191937 0.014037158 0.0011047781 -0.011176281 -0.014408441 -0.015061456 -0.0002457617 0.0043475423
0.007143079 0.003152487 0.029773235 -0.010359367 0.028310895 0.016160244 0.02553689 0.00031122973
0.024675515 -0.003526558 -0.008501413 0.003915677 -0.0046730917 -0.011191869 0.020004136 -0.01734646
-0.024165787 -0.013988687 -0.0040866756 -0.03084659 0.009215429 -0.00874238 -0.035917666 -0.005847315
-0.02205548 -0.0019580803 0.0059984354 0.010009945 -0.01536522 0.030152837 0.02938634 0.013764499
-0.0030693046 0.031123845 0.006715977 0.028109757 0.00018943367 0.025500264 0.019572528 0.025029391
0.02157549 0.00093993376 0.0014758088 0.022537451 0.010777482 -0.010668855 -0.005658233 0.022007998
0.008180918 -0.012775581 0.005648325 -0.006296997 0.024279807 0.028924776 0.025342148 0.010762557
0.024327282 0.026875487 0.005662651 -0.025889773 0.005861688 -0.0027483054 -0.0019705317 -0.003016951
0.025480656 0.011711121 0.016895609 -0.011267522 -9.524873e-05 0.007670239 -0.010808336 0.016844733
-0.027937116 0.0096475035 -0.02050031 0.0136989355 0.01804647 0.009707279 0.023632178 0.023715504
-0.0060551544 -0.012383039 -0.015772486 0.006389399 -0.022513377 -0.031587232 0.015596224 -0.00017483562
-0.022043096 -0.00831223 -0.005431576 -0.0020153082 -0.013126699 -0.012529472 0.02559026 -0.01272458
0.005480113 0.023553861 0.011341172 -0.016664144 0.00032072273 -0.018603975 0.001180568 0.018922722
-0.031327903 -0.013157217 -0.025422568 -0.015506618 -0.019048234 0.006460846 0.00052842824 -0.0029548162
-0.006714562 -0.008989916 -0.017492672 0.028991077 0.014851465 -0.012659186 -0.029644877 0.026679052
0.020935556 0.0004041451 -0.015957898 0.009447003 0.021040589 -0.023813833 0.015429873 0.019253258
0.029412068 0.016608806 -0.007388141 0.021139255 0.02707279 0.015744835 0.0022654962 0.005113117
0.020366326 0.013315069 0.007211655 -0.0042102514 0.019658862 0.005828304 0.014229729 0.010225054
0.035192505 0.014190545 -0.0040207207 0.029771695 0.0037424439 0.025076183 -0.004332435 0.0104420725
-0.023502039 0.010318746 0.015554681 0.014165338 -0.0164089 0.020166475 -0.030502075 0.01697149
-0.022442054 0.007956573 0.010855925 0.017806109 0.028677534 0.029498208 0.03134165 0.018206785
0.02940461 -0.007889871 0.001606044 -0.018156374 0.009315074 -0.034455426 -0.031031426 -0.01470244
-0.026489813 -0.001142753 -0.022920456 -0.003573419 -0.024208669 -0.0043328614 -0.027648658 -0.0037237771
0.021431308 -0.030189563 0.006358702 0.010061429 0.028501555 -0.014378618 0.00038213868 0.01886343
00000000: d2d7 8dbc 1f51 ba3c bc6a 3c3c 8619 533c
00000010: 82f7 b5ba 4b6d 81bc 6da9 403c 8cda 893c
00000020: 9312 b63c c234 86bc 9866 f83c f62e 64bc
00000030: d9c5 abbc a723 b5bc e98c 8cbc b3a6 b2b9
00000040: c0d2 8bbc 6554 343c 3d5b 3d3c 338a cbbc
00000050: ca7b 263c ae46 efbc d289 9ebc d9b5 e7bc
00000060: 9d62 c7bc b87a e3bc c393 43bc d5c9 c3bc
00000070: fb9a d73a 58fe 133c 71ec f33b c8ae 383c
00000080: c15a 9ebb 2d11 663c f629 b83b 2ab6 0c3c
00000090: 1563 3439 17b6 87bc eebb bf3b b958 7dbb
000000a0: fb1b f8bc 43ea 553c 70d1 b03b cfad 75bc
000000b0: 2b4a 3c3c 0164 e2bb e267 2abc 7b08 373b
000000c0: b6b1 07bc 76ae c2bc ea8a 04bd 2e82 84bc
000000d0: 6054 31bb e9f0 5a3c 2a9a 8c3b 9721 eabb
000000e0: c799 16bc 1cfc 653c 34ce 903a b81c 37bc
000000f0: 6211 6cbc 53c4 76bc 94d9 80b9 d475 8e3b
00000100: 7d10 ea3b f599 4e3b 00e7 f33c 56ba 29bc
00000110: 40ec e73c 7d62 843c bd32 d13c 8c2c a339
00000120: 4e24 ca3c d31d 67bb 8349 0bbc 144f 803b
00000130: bc20 99bb 1a5e 37bc b7df a33c 2a1a 8ebc
00000140: 54f7 c5bc ce30 65bc 85e9 85bb fdb1 fcbc
00000150: 50fc 163c 333c 0fbc 671e 13bd d59a bfbb
00000160: b2ad b4bc 2353 00bb 868e c43b c100 243c
00000170: 67be 7bbc 1503 f73c 9fbb f03c 7e84 613c
00000180: 6326 49bb 6ff7 fe3c b311 dc3b 6f46 e63c
00000190: b7a2 4639 eee5 d03c 9156 a03c 700a cd3c
000001a0: 15bf b03c e365 763a ed6f c13a 76a0 b83c
000001b0: 0994 303c 6ccc 2ebc b368 b9bb 1e4a b43c
000001c0: 4209 063c ac50 51bc 9615 b93b 0a57 cebb
000001d0: 72e6 c63c a7f3 ec3c 569a cf3c 7055 303c
000001e0: 024a c73c fb29 dc3c c28d b93b ca16 d4bc
000001f0: 6713 c03b ea1c 34bb 0924 01bb 0ab8 45bb
00000200: cfbc d03c 00e0 3f3c a968 8a3c 6a9b 38bc
00000210: 46c0 c7b8 a156 fb3b 7215 31bc f7fd 893c
00000220: 61dc e4bc 9010 1e3c 44f0 a7bc 8071 603c
00000230: 31d6 933c 470b 1f3c 4598 c13c 0447 c23c
00000240: 516a c6bb 3be2 4abc 4d35 81bc 2a5e d13b
00000250: f96d b8bc 9d61 01bd 4e87 7f3c 1454 37b9
00000260: b993 b4bc 0530 08bc 5dfb b1bb 4313 04bb
00000270: 5e11 57bc 6a48 4dbc aaa2 d13c c27a 50bc
00000280: 8592 b33b 07f4 c03c 53d0 393c 3e83 88bc
00000290: ad26 a839 5d67 98bc 4abd 9a3a d303 9b3c
000002a0: b051 00bd 5e91 57bc fd42 d0bc 780f 7ebc
000002b0: 0b0b 9cbc 81b5 d33b 3886 0a3a 97a5 41bb
000002c0: d405 dcbb 714a 13bc cb4c 8fbc b27e ed3c
000002d0: 8f53 733c 7968 4fbc d0d9 f2bc 078e da3c
000002e0: 0b81 ab3c 70e3 d339 23ba 82bc 9ac7 1a3c
000002f0: 505d ac3c 3a15 c3bc 94cd 7c3c 02b9 9d3c
00000300: 94f1 f03c 310f 883c 3818 f2bb 3b2c ad3c
00000310: c1c7 dd3c 50fb 803c b878 143b ef8b a73b
00000320: 48d7 a63c 7227 5a3c bf4f ec3b 26f6 89bb
00000330: 9f0b a13c 5cfb be3b cf23 693c fc86 273c
00000340: 0426 103d 767f 683c 40c0 83bb c5e3 f33c
00000350: ca43 753b 916c cd3c 19f7 8dbb 3a15 2b3c
00000360: 5987 c0bc f50f 293c 10d9 7e3c bc15 683c
00000370: f56b 86bc 2a34 a53c 7ddf f9bc cb07 8b3c
00000380: 66d8 b7bc 495c 023c 0ddd 313c 1ede 913c
00000390: 26ed ea3c 3aa6 f13c 1a60 003d 6526 953c
000003a0: f0e1 f03c 8444 01bc e581 d23a adbc 94bc
000003b0: 419e 183c 2221 0dbd 9e35 febc 81e2 70bc
000003c0: 2a01 d9bc 6ec8 95ba aec3 bbbc 0630 6abb
000003d0: 4251 c6bc adfa 8dbb 707f e2bc 9d0a 74bb
000003e0: b690 af3c 1a50 f7bc a95c d03b b1d8 243c
000003f0: 187c e93c 4c94 6bbc c959 c839 7b87 9a3c

decoder.0.bias f4 [64]
0.034878235 0.03342058 -0.02740067 0.0034504433 0.011554738 0.04164388 -0.011430258 0.026964255
0.01780159 0.014125359 0.009598788 -0.0042403485 -0.02986356 0.021882616 0.0030163832 0.0073626516
-0.020303302 0.012955594 0.021856064 0.011063532 0.0054035853 -0.018798897 0.013626781 0.026245374
0.00224479 -0.015668992 -0.029200798 -0.011857988 0.007433413 0.00785703 -0.0030047176 0.009531456
-0.0072714407 -0.008775433 -0.009041464 -0.022975177 0.00054435804 -0.01303278 0.008181586 -0.013061641
0.0075781783 0.030239696 0.0057265274 0.020002022 -0.0020118835 -0.017931413 -0.009010509 0.011029334
-0.021885213 0.012525577 0.017061591 0.036458947 -0.02952507 0.0059486674 0.00021809641 0.035861276
0.0032664433 0.011891187 0.0061998395 -0.00018315186 0.013116319 0.032866493 -0.033733305 0.01784516
00000000: 7bdc 0e3d 05e4 083d 5f77 e0bc d520 623b
00000010: 1550 3d3c c692 2a3d fa45 3bbc 24e4 dc3c
00000020: a4d4 913c 0d6e 673c 3c44 1d3c 9ff2 8abb
00000030: 6da4 f4bc 2c43 b33c 83ae 453b 6642 f13b
00000040: 1c53 a6bc b343 543c 7d0b b33c d143 353c
00000050: 8f10 b13b 2500 9abc dd42 5f3c 8a00 d73c
00000060: 541d 133b 425c 80bc 8336 efbc 0248 42bc
00000070: fd93 f33b c6ba 003c ccea 44bb d329 1c3c
00000080: 4445 eebb d5c6 0fbc a622 14bc 7036 bcbc
00000090: 40b3 0e3a 7187 55bc 0f0c 063c 7e00 56bc
000000a0: 5e52 f83b 3db9 f73c 98a5 bb3b 48db a33c
000000b0: ced9 03bb e6e4 92bc d0a0 13bc 61b4 343c
000000c0: 9e48 b3bc 1438 4d3c c0c4 8b3c fa55 153d
000000d0: 8fde f1bc 0aed c23b cfb0 6439 46e3 123d
000000e0: d311 563b 41d3 423c 0628 cb3b 740c 40b9
000000f0: d4e5 563c 049f 063d ef2b 0abd 0330 923c

decoder.2.weight f4 [3, 64, 3, 3]
-0.0068743816 0.023262529 -0.015530391 -0.038735736 -0.009420188 -0.017331779 0.002106435 -0.03102674
0.028093101 0.0028912495 0.022810532 -0.018712554 -0.0004352013 -0.040127076 -0.025015589 -0.02607638
0.007978402 -0.0031504573 0.033770747 0.033204153 0.005654948 -0.0006872265 0.0005429351 0.025712324
0.040400293 0.015228126 -0.0002599015 -0.03808606 0.011117105 0.024261951 -0.0043484643 0.008154055
0.037472665 0.023929264 0.00467435 0.017918361 0.034473293 -0.023656176 -0.028497888 0.033118144
-0.031997416 0.0138362 0.022203272 0.03369464 0.0023513646 -0.022211596 0.009268723 -0.034899443
-0.023435937 -0.016058026 -0.03767529 0.023031997 -0.03906251 -0.0056453818 0.01543652 -0.023909707
-0.03180256 0.017900465 0.013640438 0.03675454 0.012892442 -0.034318075 0.04114295 0.022557355
0.004972387 0.011924588 -0.048808634 -0.01136641 0.014944275 0.012858791 0.01951243 0.007068778
0.0025524672 0.006921863 -0.027079457 0.0031859577 -0.034926787 -0.04203551 0.01700275 -0.030796995
0.025039572 -0.02498525 0.018712465 -0.042055976 0.0002494246 -0.0349415 0.016438713 0.015210856
0.0055026445 -0.0076078456 -0.017672827 0.0042804433 0.0275286 0.026773797 -0.013927639 0.020206133
-0.03465071 -0.009727287 -0.003788702 0.013149921 0.01864564 -0.0020972497 0.062072027 0.020635072
0.03046637 0.022092085 0.050454997 0.02817495 0.014384437 0.03259106 0.044742838 0.043174338
0.034526356 0.021604031 -0.017800173 -0.00044296222 -0.0015143843 0.032093287 0.0025752431 0.022285601
-0.0396195 -0.029582858 -0.035655335 0.0013394669 0.015007654 -0.023541592 0.010711636 0.034492075
-0.01884501 0.044177603 0.023169247 0.022217877 0.022054488 0.021821963 -0.032187715 0.04631174
0.02071216 -0.010149015 0.026678473 0.0004192412 -0.005829038 0.010539464 0.022178425 -0.0020516533
0.006924531 0.013141038 -0.037952855 -0.006642472 0.017491296 0.02003552 -0.035199326 0.040450282
-0.036599234 0.033968862 0.035678 0.01771452 -0.020012246 0.04263318 -0.0048234863 0.030082544
0.010449653 -0.009885815 0.009836052 0.017103974 0.022427155 -0.029560963 -0.015458843 0.035245135
0.02587224 0.03862312 0.011890779 0.0028767749 -0.0060043996 0.013354042 -0.033660904 -0.04786864
-0.044653147 -0.0019659968 -0.008378265 0.035007957 -0.019507412 0.0009600175 0.025029859 -0.00059204054
-0.011611425 -0.034864664 -0.034962032 0.01185995 -0.038249742 0.03935073 -0.009285018 -0.010836051
0.040560953 0.046764597 -0.005251043 0.033472214 -0.0074556186 -0.018159784 0.0064600995 -0.031067692
0.01763628 -0.011807504 0.03541865 -0.019725813 0.021671103 0.05188674 0.0033891203 0.019211832
0.025986696 -0.035464864 -0.032658968 -0.02166279 0.014284341 -0.010077433 -0.011236766 -0.00038068835
0.03567744 -0.017080938 -0.029393734 0.006545031 -0.036812562 -0.046589423 -0.0038941174 -0.07023
-0.014228572 -0.04163511 0.0018343385 0.02826889 0.020330232 -0.0360909 -0.02826688 0.0020838068
-0.015032175 -0.027694603 -0.025692783 -0.007843212 0.012288908 0.00030883038 0.020337628 0.029950472
-0.006695054 -0.01867725 -0.02764025 0.0038406951 0.006983168 -0.03342734 -0.035091482 -0.019967558
0.021757554 0.024770034 -0.0068740495 0.008708408 0.02355761 -0.00028036558 -0.020008959 -0.010279328
00000000: 7e42 e1bb 0f91 be3c 2e73 7ebc 5da9 1ebd
00000010: 2257 1abc 60fb 8dbc 1d0c 0a3b ca2b febc
00000020: 8123 e63c 1e7b 3d3b 27dd ba3c 124b 99bc
00000030: bb2b e4b9 4a5c 24bd 7eed ccbc 229e d5bc
00000040: d8b7 023c e777 4ebb 3253 0a3d 1401 083d
00000050: 244d b93b fd26 34ba c253 0e3a a7a2 d23c
00000060: c77a 253d 647f 793c 6443 88b9 2100 1cbd
00000070: 8524 363c 00c1 c63c 907d 8ebb 9698 053c
00000080: f07c 193d 4e07 c43c 4a2b 993b 87c9 923c
00000090: de33 0d3d 99ca c1bc 6774 e9bc e4a6 073d
000000a0: b90f 03bd 3bb1 623c a3e3 b53c 6403 0a3d
000000b0: 5a19 1a3b 18f5 b5bc d8db 173c b8f2 0ebd
000000c0: b9fc bfbc 1f8c 83bc 6851 1abd 99ad bc3c
000000d0: 0300 20bd e5fc b8bb 75e9 7c3c 4ade c3bc
000000e0: 6743 02bd ffa3 923c 257c 5f3c ee8b 163d
000000f0: d23a 533c 1c91 0cbd 8385 283d 34ca b83c
00000100: 68ef a23b 595f 433c 90eb 47bd 2e3a 3abc
00000110: d5d8 743c aead 523c 88d8 9f3c 35a1 e73b
00000120: 4b47 273b ccd0 e23b bdd5 ddbc 80cb 503b
00000130: 640f 0fbd 6d2d 2cbd 5a49 8b3c fb49 fcbc
00000140: ca1f cd3c dead ccbc e24a 993c e342 2cbd
00000150: 34c5 8239 d11e 0fbd 7baa 863c f436 793c
00000160: 874f b43b 3c4b f9bb 9bc6 90bc f642 8c3b
00000170: a983 e13c b954 db3c c130 64bc 5587 a53c
00000180: e7ed 0dbd 335f 1fbc df4b 78bb c472 573c
00000190: bebe 983c 0372 09bb 3d3f 7e3d e20a a93c
000001a0: 9c94 f93c 76fa b43c e6a9 4e3d 27cf e63c
000001b0: b4ac 6b3c 347e 053d 4444 373d 93d7 303d
000001c0: 826b 0d3d f0fa b03c abd1 91bc 623d e8b9
000001d0: 4e7e c6ba 4074 033d 69c5 283b 4b90 b63c
000001e0: 0f48 22bd c057 f2bc 540b 12bd 0d91 af3a
000001f0: aae2 753c 4cda c0bc dc7f 2f3c 9047 0d3d
00000200: da60 9abc 93f3 343d 6fcd bd3c 4402 b63c
00000210: 9dab b43c f9c3 b23c 44d7 03bd 61b1 3d3d
00000220: 8cac a93c 0e48 26bc d08c da3c 9acd db39
00000230: 8401 bfbb b7ad 2c3c 87af b53c 0875 06bb
00000240: 2de7 e23b 824d 573c 7474 1bbd 18a9 d9bb
00000250: e849 8f3c 8821 a43c 2b2d 10bd 32af 253d
00000260: 14e9 15bd ef22 0b3d 1823 123d 0b1e 913c
00000270: b9f0 a3bc 21a0 2e3d 560e 9ebb ab6f f63c
00000280: 0535 2b3c 1df8 21bc 6427 213c a21d 8c3c
00000290: 27b9 b73c d529 f2bc 1647 7dbc 345d 103d
000002a0: 05f2 d33c 4733 1e3d 8bd1 423c 4688 3c3b
000002b0: 8ec0 c4bb e9ca 5a3c 04e0 09bd e811 44bd
000002c0: 38e6 36bd f4d7 00bb fe44 09bc 8164 0f3d
000002d0: 02ce 9fbc afa9 7b3a 6b0b cd3c 2b33 1bba
000002e0: d93d 3ebc 40ce 0ebd 5934 0fbd 3c50 423c
000002f0: c3ab 1cbd 3b2e 213d 3020 18bc b189 31bc
00000300: 3e23 263d 3c8c 3f3d f110 acbb 291a 093d
00000310: 434e f4bb d4c3 94bc 3eaf d33b ac81 febc
00000320: f679 903c 4374 41bc 2513 113d 0798 a1bc
00000330: 9987 b13c 3187 543d 011c 5e3b 2262 9d3c
00000340: 0de2 d43c 9b43 11bd 69c5 05bd 2a76 b1bc
00000350: de08 6a3c d11b 25bc 6a1a 38bc 2097 c7b9
00000360: 8222 123d 53ed 8bbc 21cb f0bc b377 d63b
00000370: c5c8 16bd 8dd4 3ebd 7334 7fbb bfd4 8fbd
00000380: f51e 69bc 9489 2abd 306e f03a 2994 e73c
00000390: 968b a63c 0dd4 13bd f28f e7bc 7a90 083b
000003a0: 8349 76bc cbdf e2bc ac79 d2bc d180 00bc
000003b0: 6a57 493c 83ea a139 199b a63c b15a f53c
000003c0: 2f62 dbbb 0801 99bc ce6d e2bc 2cb4 7b3b
000003d0: 0fd3 e43b 1beb 08bd 16bc 0fbd 0193 a3bc
000003e0: e63c b23c 87ea ca3c b53f e1bb b6ad 0e3c
000003f0: e4fb c03c 08fe 92b9 d4e9 a3bc a06a 28bc

decoder.2.bias f4 [3]
0.01249223 -0.013663872 0.016117264
00000000: 36ac 4c3c 6fde 5fbc 5a08 843c
