frame_interpolation_model_BETA.pth (torch, 334036 bytes, 6 tensors)

encoder.0.weight f4 [128, 6, 3, 3]
000000 37 69 f0 bd 75 e6 83 bd cf 39 84 3d 95 82 31 bd
       -0.11738818 -0.064404406 0.064563386 -0.043337423
000010 d6 ca 75 bc 50 45 c9 bd 04 98 b5 3d 74 47 cc 3d
       -0.015001973 -0.098276734 0.08866885 0.09974566
000020 b0 cc c0 3d d9 a2 af 3d 49 c3 9e bd e8 8a 11 be
       0.09414041 0.085759826 -0.077520914 -0.14213145
000030 b5 f7 e0 3c ec 4d 0a 3c d4 a3 85 bc 2c 77 98 3d
       0.027461866 0.00844143 -0.01631347 0.07444605
000040 22 ac 98 bd 83 46 89 bb c5 2c b3 3d 1c 32 f9 bd
       -0.07454707 -0.004189314 0.087487735 -0.12167761
000050 21 09 3d 3d c8 76 00 3d 39 c3 07 be bd 2d b3 bd
       0.046151284 0.03136328 -0.13258065 -0.08748958
000060 7a cf 8e 3d 31 85 58 3d f0 af d0 3d 8d 15 f8 3d
       0.06973167 0.052861396 0.101898074 0.121134855
000070 2c 6e e6 bd 71 9e fb 3d 27 4e 4e bd 0c 24 88 3d
       -0.11251482 0.1228608 -0.0503675 0.066475004
000080 3e b7 38 3d 01 35 0b 3e 51 5a 91 3d b5 30 5d bc
       0.04509663 0.13594438 0.070973046 -0.013500382
000090 d0 e4 be bd 51 14 07 3d 1f 95 3e 3b c2 09 61 bd
       -0.09320986 0.03297836 0.0029080582 -0.054940946
0000a0 d4 67 e8 bd f4 a9 c8 bc a4 52 0a bd d8 5b 9e bd
       -0.11347929 -0.024495102 -0.03377022 -0.077323616
0000b0 a0 3b b8 bc 93 b0 f6 bd ac fb d9 3d b6 0c 37 bd
       -0.022489369 -0.120453976 0.10643706 -0.044689856
0000c0 42 be af 3d 8a ae 5f bc ee 99 49 bc 11 0d 1d 3d
       0.08581211 -0.013652453 -0.012304766 0.03834254
0000d0 fb e3 fe 3c 66 4e 56 3d d1 d6 70 3c d6 27 06 bc
       0.031114569 0.05232086 0.014699654 -0.008188209
0000e0 92 e7 07 bd 18 66 a6 bd d3 d1 fd bd 4f 14 9a 3d
       -0.033179827 -0.081249416 -0.123935364 0.07523405
0000f0 96 f4 2d bd b2 1d 61 bd 10 db 16 bd 96 fa 9d bd
       -0.042469583 -0.05495996 -0.036830008 -0.07713811
000100 f8 22 eb 3d 81 6f 64 3d a7 49 8c bd bf a6 09 3d
       0.11481279 0.0557704 -0.068499856 0.033606287
000110 2a 6b 96 3d ca 07 0e bd bc 60 02 3e 5c e0 8a bd
       0.07344659 -0.034675397 0.12732214 -0.067810744
000120 8c 15 66 3d 58 19 d0 3c 7c eb f4 3d 3d 47 c2 bd
       0.056172892 0.02540271 0.119589776 -0.09486244
000130 8e 08 f9 bc c0 86 8c 3c 83 84 f5 bd 10 67 b9 bd
       -0.030399587 0.017154098 -0.11988165 -0.09052861
000140 a0 81 50 3d 3c 30 48 3d fe bd bd bd 43 64 88 bc
       0.05090487 0.048874125 -0.09264754 -0.016649371
000150 7e bc 43 bd 34 a1 86 3d 6a 38 47 bd 07 85 72 bc
       -0.047787182 0.06573716 -0.048637785 -0.014802224
000160 de f3 18 bd 4e 81 4a 3d cd 6f 83 3d b5 e6 19 3d
       -0.037341945 0.04943972 0.06417809 0.037573535
000170 6a 0c 4a 3d 8f 24 e2 bd 53 a3 3f 3d 4f c9 ef bd
       0.049328245 -0.11042129 0.046786617 -0.117083184
000180 c0 20 24 bd a7 29 3b bc 0e 25 f5 3c 77 94 0a 3e
       -0.040070295 -0.011423505 0.029924896 0.13533197
000190 95 c8 fa bd 4f ee 85 3d 46 17 9b bd cf 9d ae bd
       -0.12245289 0.065395944 -0.075727984 -0.08526193
0001a0 d6 21 12 3c 14 c5 bb 3d e5 e0 a7 3c e2 33 6e 3d
       0.0089192 0.09168449 0.02049298 0.058154948
0001b0 73 8d 5c 3c f6 c3 03 3e 88 31 aa bd 7d df 2d bd
       0.0134614585 0.12867722 -0.083102286 -0.042449463
0001c0 8d 77 54 3d 70 c2 ed bd 90 2b bd 3d 33 d3 06 3e
       0.051871825 -0.11609352 0.092368245 0.13166504
0001d0 3a b6 b8 bd 67 2e c8 bd c5 75 3a 3c 3f d8 8c bd
       -0.09019132 -0.097744755 0.0113806175 -0.06877183
0001e0 3e 50 2a 3d be cc 4b bd 71 ee d7 3d 55 c9 a2 bc
       0.04158043 -0.049755804 0.10543526 -0.019871393
0001f0 f2 2b 9d bb d8 ea 82 3d 84 9b 89 3c 2e 64 07 bd
       -0.0047964985 0.06392449 0.016797788 -0.033054523
000200 f6 12 d4 bd 38 53 ee bd f6 19 e4 3d f4 63 da 3d
       -0.10355179 -0.116369665 0.11137764 0.10663596
000210 f5 be f1 3c 64 11 63 3d e1 2f 8d 3d d9 d1 eb bd
       0.02951 0.055436507 0.06893898 -0.11514635
000220 1f 5d bf bd 10 82 b2 bd c6 36 f9 bd cf 0b 02 3e
       -0.09343933 -0.08716214 -0.1216865 0.12699817
000230 07 d5 07 3e 64 1c b8 bd b5 94 dd 3d c5 00 23 3d
       0.13264857 -0.0898979 0.10819379 0.039795656
000240 99 d2 86 bd 16 2e a7 3d 7d 60 08 be 4d fc 14 bc
       -0.06583137 0.08163087 -0.13318057 -0.009093356
000250 e1 aa 83 3d be 7b 5d bd 06 75 0e 3e f0 77 10 bc
       0.06429077 -0.054073088 0.13911828 -0.008817658
000260 a4 9a 11 3e 45 5d fd 3d dd 90 73 bd e0 8e 48 bc
       0.14219147 0.123713054 -0.059464324 -0.012241095
000270 bf 01 83 bd d1 99 c0 bd 3a 35 a5 bd f8 4f 88 bd
       -0.063968174 -0.09404338 -0.08066793 -0.06655878
000280 b3 a8 e1 3d 45 0f 15 bd 59 04 33 3c 8d 00 d1 bc
       0.11018505 -0.036391515 0.0109263295 -0.025512958
000290 11 a5 ac bd 38 93 8a 3d 4e 40 14 3e 87 ce e6 3d
       -0.084299214 0.06766361 0.14477655 0.11269861
0002a0 6e 14 f4 3d 8c 3a d6 bc 25 a2 bd 3d 3b 4e c7 bd
       0.11917959 -0.026150964 0.09259442 -0.09731718
0002b0 6b d0 00 ba e9 73 c6 bd 39 40 ee bd 3d c0 14 bd
       -0.0004913869 -0.09690077 -0.11633343 -0.036316145
0002c0 9a 81 34 bd 4f 2f 0a be aa 10 b5 3c f8 cb e9 3d
       -0.04406891 -0.1349461 0.022102673 0.11415857
0002d0 ce 9f 10 be 20 96 06 3d 0b ca f3 3d 52 ba 61 3d
       -0.1412346 0.032858014 0.11903771 0.05510933
0002e0 bf c8 82 bd 5d 8c fb bd 7d 9a 63 3c 7d 1a 06 3e
       -0.063859455 -0.122826315 0.013891813 0.13096042
0002f0 d0 bb 04 3e 18 69 57 3d bc 38 d0 3c da 57 ca bd
       0.1296227 0.05259046 0.025417678 -0.098800376
000300 a8 6e aa 3d 58 ef d5 bd 19 b1 b2 3d e2 24 07 be
       0.08321887 -0.10446042 0.08725185 -0.13197663
000310 56 26 dc 3d 32 1b 14 3d 43 1c 3f 3d 53 19 5f bd
       0.107494995 0.036158748 0.04665781 -0.05446751
000320 91 31 98 bd ab c4 69 3d 76 97 68 3d 60 d7 e3 3d
       -0.07431329 0.057072323 0.05678507 0.11125064
000330 0f 78 2b bd 00 2c a9 3d 33 bd 11 bd e2 9c 19 3b
       -0.041862544 0.082603455 -0.035580825 0.0023439457
000340 b8 e0 f7 3d 40 41 9a bc 42 9e b5 3d 53 e2 b7 bd
       0.121034086 -0.018829942 0.08868076 -0.08978715
000350 32 5c 0a bc df e5 39 bd 30 df 0e bd f7 33 fa 3c
       -0.008444833 -0.045385238 -0.034880817 0.030542357
000360 42 d0 8c bd 49 89 ef 3d 32 29 9d 3d 2a ea 00 3e
       -0.068756595 0.11696107 0.07673873 0.12589327
000370 5e 7d 6b 3c a7 2c ab 3d 7d 95 6e bd e5 65 99 3d
       0.014373152 0.08358126 -0.058248032 0.07490138
000380 90 8b 07 3e fa 20 9b bd 97 75 42 bc 62 e0 00 3e
       0.13236833 -0.07574649 -0.011868856 0.12585595
000390 da 0a bb 3d 96 ac f9 3b a0 42 b9 bd c4 df 52 3d
       0.09132929 0.007619451 -0.09045911 0.05148293
0003a0 28 71 f0 3d 85 1c 5b bd af fb 2c bd 35 7c 06 3e
       0.11740333 -0.053493995 -0.04223221 0.13133319
0003b0 a9 73 f7 bd a4 46 e1 bd 6c d9 ab bd 95 d0 df 3c
       -0.12082607 -0.10999802 -0.08391079 0.02732114
0003c0 7e 5b ac 3d fc 81 f5 bd 9f 18 ec 3d 03 3a f6 3d
       0.08415888 -0.11987683 0.115281336 0.120227836
0003d0 cf ea 12 3d bf 50 57 3d 77 30 84 bd 8d e8 df bd
       0.035868462 0.05256724 -0.064545564 -0.109330274
0003e0 6d c2 a3 3a 87 88 07 3e 62 b3 f0 bd 59 7b 02 be
       0.0012493856 0.13235675 -0.117529646 -0.12742366
0003f0 9e 5c 9d bd 75 a1 a9 3d 33 c4 ff bd 94 24 c1 3d
       -0.07683681 0.082827486 -0.12488594 0.09430805

encoder.0.bias f4 [128]
000000 77 a1 9a 3d 79 8a cf bd 3c 9d f4 3c d1 e1 f4 3d
       0.07550328 -0.101338334 0.029860131 0.119571336
000010 ee 27 32 bd 38 08 8a 3c a1 58 fc bd b6 17 ab bd
       -0.04349511 0.016849622 -0.12321592 -0.08354132
000020 d5 62 07 bc bb 02 95 3b 18 a8 94 bd bf 58 6a bd
       -0.0082633095 0.0045474446 -0.07258624 -0.05721354
000030 61 72 66 bd 81 5f 36 bd c7 53 12 3d e6 94 bb bd
       -0.056261424 -0.044524673 0.035724428 -0.091592595
000040 02 f8 2d bd a9 17 85 bd 25 8d 13 be 65 3e a5 bd
       -0.042472847 -0.064986534 -0.14409311 -0.080685414
000050 fa 16 52 bd f9 88 6b bd d0 01 92 bd 24 93 32 bb
       -0.051291443 -0.057503674 -0.07129252 -0.0027248347
000060 e8 b9 8b bd 6b 7a 7d 3d 1c 95 01 be a7 23 92 3d
       -0.06822568 0.061884325 -0.12654537 0.071357064
000070 7c 0a 4e 3d fa 2b 8e bd 47 32 64 bd b3 23 ba bc
       0.050302967 -0.069419816 -0.05571201 -0.0227221
000080 80 38 01 bd 9c d8 be 3c a7 d8 77 3d 09 7a 15 3d
       -0.031548023 0.023296647 0.06050935 0.036493335
000090 dd 03 44 bd 4b 1c b2 bd 4a a5 ca bd 03 e2 f5 3c
       -0.047855247 -0.08696803 -0.09894808 0.030014997
0000a0 af 20 83 3d 4b 9b e2 bd cf 6e 6e 3d 5f b4 cc bb
       0.06402718 -0.11064776 0.058211144 -0.006247088
0000b0 f8 1f 28 3d e4 cb 9a 3d 38 44 65 bd 83 a4 a1 3c
       0.041046113 0.0755842 -0.05597326 0.019731766
0000c0 6d 90 aa 3d 07 95 f9 3d 2c 36 9d 3d 4e 59 f5 3c
       0.08328328 0.12186628 0.07676348 0.02994981
0000d0 ce df e3 3b e1 d6 fe 3b 81 49 b2 bd ab 0f a0 bd
       0.00695417 0.0077770804 -0.08705426 -0.078154884
0000e0 77 2f c5 bc 98 a8 e9 bd 42 e4 d2 3c 82 90 79 3d
       -0.024070485 -0.1140911 0.025743607 0.06092883
0000f0 01 b1 a9 3c c7 01 04 be 03 33 d3 3d c3 ff d9 bd
       0.020714285 -0.12891303 0.10312464 -0.10644486
000100 51 9b 90 bd 47 3d 93 3d 94 e8 c0 3c de 15 19 3d
       -0.07060874 0.07189422 0.023548402 0.03737437
000110 af 69 c4 bc 40 84 e3 3d 57 70 fe 3d 95 0b fd 3d
       -0.023976175 0.11109209 0.12423771 0.12355725
000120 3e d3 66 bc b1 57 f5 3d f6 18 9c bd b9 76 0c bd
       -0.01408845 0.119796164 -0.076219484 -0.03429291
000130 94 b6 e5 bc ef b8 96 bd 65 5d 2d 3c ee 32 eb 3d
       -0.028041162 -0.07359492 0.010581349 0.114843234
000140 88 a7 b2 3c dc 07 c3 3d f1 18 9d bd 6a ec 2e 3c
       0.0218084 0.095229834 -0.07670773 0.010676483
000150 be 73 99 bc a5 67 81 bd f8 19 69 bd eb bf 6b 3d
       -0.018731948 -0.06318597 -0.05690953 0.057556074
000160 76 2b b9 bd e9 2d 9a 3b a2 df a6 bd ba c7 b0 bb
       -0.09041493 0.00470518 -0.08148123 -0.005394903
000170 23 6f e0 bd 84 c3 38 bd 1f 90 ee 3d b9 17 ac 3c
       -0.10958698 -0.045108333 0.11648583 0.021007406
000180 09 dd 00 be 1a 21 bc bd 8b c8 da 3d 5d 7c 90 bd
       -0.12584318 -0.09186001 0.10682782 -0.070549704
000190 05 b7 f9 bd aa 36 71 bd a7 1c 61 3d 82 e5 a6 bd
       -0.12193111 -0.058890022 0.054958966 -0.08149244
0001a0 1d 87 b3 bd 04 e9 ac 3d 88 62 17 bd 88 b1 86 3c
       -0.08766005 0.08442882 -0.0369592 0.016442075
0001b0 3a 8c 20 bd 7e d3 cc bd d7 69 08 3d 0f a3 8e bc
       -0.03919623 -0.100012764 0.03330406 -0.017411737
0001c0 9e 4a 83 bd b4 dd 64 3d b6 71 9b bd 5f d3 b6 bd
       -0.064107165 0.055875495 -0.07590048 -0.089270346
0001d0 99 e8 c6 3d 62 81 f9 3b b4 20 66 3d fd b3 fb 3c
       0.09712333 0.0076143006 0.056183532 0.030725474
0001e0 d2 39 3f 3d ed cb ed bd 39 e9 85 bd f2 ed 97 3d
       0.046686 -0.116111614 -0.06538624 0.07418431
0001f0 e1 72 f2 3d 3f bc 40 3b 19 ab 85 3c fa d5 91 bc
       0.11838318 0.0029409078 0.016316937 -0.017802227

decoder.0.weight f4 [64, 128, 3, 3]
000000 2b 1c 94 3a a5 dc a0 bb d9 85 7c ba 82 77 a1 bc
       0.0011299899 -0.0049091154 -0.0009632982 -0.019710306
000010 44 e6 c2 bc 16 99 95 bc c5 d8 5e bc f0 a7 a1 bc
       -0.02379144 -0.018261474 -0.013601487 -0.0197334
000020 9f 0d 02 3d 03 20 03 3b 60 07 01 bc 63 b8 e6 bb
       0.03175127 0.0020008094 -0.0078752935 -0.0070410236
000030 02 ee aa 3c 5d 39 bc 3c 9f fa e5 3b 22 f1 9c bb
       0.020865444 0.022976572 0.0070184018 -0.0047894875
000040 33 2c 94 3c 47 9e f8 3a a6 80 57 3c da 49 6e 3d
       0.018087482 0.0018968069 0.013153231 0.0581759
000050 50 0d b1 3c 01 67 31 bb ec 84 9c 3c 12 9f 58 bc
       0.021612793 -0.0027069452 0.01910635 -0.013221519
000060 9c 17 9e bc de c7 72 b9 fc c1 57 3c ea 7b 49 3c
       -0.019298367 -0.00023153375 0.013168808 0.01229761
000070 d6 8a e6 3b cc e0 91 bc bc 93 de 3b 9d 42 fe ba
       0.0070355935 -0.017807387 0.0067925137 -0.0019398514
000080 56 d9 1d 3c b3 1f c3 3c 1e e6 25 bc 50 94 33 3c
       0.009634336 0.023818826 -0.010125665 0.010960653
000090 b3 db c6 3c 2e f1 86 bb e3 6e e2 bb ee c3 e4 bc
       0.024274683 -0.0041181063 -0.0069101914 -0.027925458
0000a0 5b b1 84 3c b6 39 94 bc 6b 62 f5 ba e1 39 a9 bc
       0.01619785 -0.018093925 -0.0018721347 -0.020657482
0000b0 e5 0e 49 3c 7d 62 88 3a 04 c4 a4 bc 6d 56 41 bb
       0.012271618 0.0010405328 -0.020112999 -0.0029500977
0000c0 b3 cb 5f bc ba d1 95 bc f0 19 1a 3c 18 9b ad bb
       -0.0136594055 -0.018288482 0.009405598 -0.0052980296
0000d0 58 15 ff 3b 7f 14 e5 3c 95 7f f2 3b d4 0c 03 3d
       0.007784527 0.027963875 0.007400463 0.031994656
0000e0 2d 49 70 3c fa 0a ba 3c 1b 65 13 bd bf 10 dc 3c
       0.014665884 0.022710312 -0.035985094 0.026863454
0000f0 0a 10 8b bc c0 c1 16 3d 66 69 8b bb c8 b3 c8 3b
       -0.016975421 0.03680587 -0.004254508 0.006124947
000100 48 31 92 bb bd ae 71 ba b5 fc c9 3a 90 b5 2d 3c
       -0.004461441 -0.00092194584 0.0015410396 0.01060237
000110 92 81 ba 3b d7 73 14 3c 3f c4 bf 3c 51 39 90 bb
       0.0056917155 0.0090608215 0.023409007 -0.004401364
000120 c4 0b a6 3c d5 43 5b 3b ab f0 c3 3b 84 46 6e bc
       0.020269282 0.003345718 0.0059796176 -0.014543179
000130 0a f9 35 bd 37 70 59 3c 35 a3 66 3c 4c a4 4f bc
       -0.044426955 0.013271383 0.0140769975 -0.012673449
000140 80 f3 9a 3c 2c 8f 42 3c 92 8f be 3c 78 b0 9c 3c
       0.018914938 0.011874955 0.023261819 0.019127116
000150 df 43 70 bb f3 fc c1 bc a3 85 d1 3b 75 b8 a2 3c
       -0.0036661548 -0.023680186 0.0063941046 0.019863347
000160 ba 95 20 3c ac f7 27 3c 6d 82 a0 bc 6a 2d 40 3b
       0.009801323 0.010251921 -0.019593442 0.0029323944
000170 40 64 6a bc 05 99 35 bc b5 10 98 bc 1d b5 7f bb
       -0.014306128 -0.011083846 -0.018562654 -0.0039017864
000180 d3 8c dc 3c c2 fc 15 bb 30 50 82 bc ed 42 9c bc
       0.026922619 -0.002288625 -0.015907377 -0.019074881
000190 0d a7 74 bc 80 a0 10 bc bc 0a 0a bd 34 94 29 3c
       -0.014932406 -0.008827329 -0.033701643 0.010350276
0001a0 2d de 1e 3c df 66 7a bc f4 d9 13 bd 9b cc 3e 3c
       0.0096965255 -0.015283315 -0.03609653 0.011645461
0001b0 b0 69 ad bb a7 5e 32 3c 72 96 be 3c 8d f8 38 bc
       -0.00529214 0.010886825 0.023265097 -0.011289728
0001c0 f1 94 8c bc 09 c2 f5 3b c7 43 b8 bc 90 fa 7e bc
       -0.017160865 0.0074999374 -0.022493256 -0.015562668
0001d0 eb 0a c4 3c e9 90 94 3c da e4 c5 3c 36 23 66 3c
       0.023930987 0.018135505 0.024156976 0.014046481
0001e0 50 d3 d0 3c 2f 72 31 bc 40 82 bb 3c 47 b7 aa 3c
       0.025491387 -0.010830446 0.022889256 0.020839347
0001f0 cc 6c d4 3c 20 db 69 bc df 13 6b bc 88 e3 bd 3c
       0.025930785 -0.014273435 -0.014347999 0.023179784
000200 40 c6 d8 3c 4d 10 f7 bb ea d4 e0 3c cb ca 45 3a
       0.02646172 -0.007539785 0.027445275 0.0007545172
000210 47 68 dd 3b 3a 70 c4 3a 01 08 d8 bb d2 28 a8 3c
       0.0067568156 0.0014987059 -0.006592751 0.020527277
000220 e8 9f de 3b ab e7 78 bc 4b 6b 5b 3c bf a9 b6 ba
       0.0067939647 -0.015191953 0.01339228 -0.0013936086
000230 56 26 c5 3c ca c5 19 bb 3e 25 ec 3c d7 c2 23 bc
       0.024066132 -0.0023463839 0.028826352 -0.009995184
000240 51 ab 36 bb 4a e3 a9 3c 91 f6 e0 3c 7a 02 79 3c
       -0.0027873109 0.020738263 0.027461322 0.015198344
000250 ec 0f de bc 7a 50 96 bb a9 52 cd bc b8 c8 ca bb
       -0.027107202 -0.0045872303 -0.02506383 -0.0061884783
000260 75 20 4e bc 70 41 83 b9 c9 10 9f 3c 04 e0 59 3a
       -0.012580981 -0.00025035022 0.019417183 0.0008311274
000270 6d de 7b 3b 4f 1f db 3b 07 a4 2c 3b 5c e2 12 bb
       0.0038432137 0.006687082 0.0026342885 -0.0022412753
000280 ce c1 6c bc a2 f4 8b bc dc b0 2c 3b 17 eb 04 bd
       -0.0144505035 -0.017084423 0.0026350534 -0.03245076
000290 a4 9a f9 3c 7f 63 b3 3c 3e a9 24 bb 18 03 63 bc
       0.030469246 0.02189803 -0.002512529 -0.013855718
0002a0 a4 b3 d4 bc 3a f6 c1 bc 20 35 ce bb 87 14 73 3c
       -0.025964566 -0.02367698 -0.006292954 0.014836437
0002b0 03 fc 37 bd 4d 1a 1c bd d7 a7 b7 bc cb f6 81 3b
       -0.04491807 -0.03811102 -0.0224189 0.0039661876
0002c0 84 61 68 bb 9a 7e 7b bc 2f 15 6f 3b 57 f7 d6 3b
       -0.0035458514 -0.015350008 0.0036481132 0.006560247
0002d0 5c 21 59 bb d7 63 9f bc ff 34 19 3c 05 8c e2 bc
       -0.0033131456 -0.019456787 0.009351014 -0.027654657
0002e0 b5 23 3e bb f1 0e 8e bc 46 2c 31 3b 25 18 29 bc
       -0.0029012982 -0.017341109 0.0027034446 -0.010320698
0002f0 21 c1 55 3c dd 94 e0 3c 60 a5 ec 39 ba 15 fa bb
       0.013046534 0.027414734 0.00045136642 -0.0076319845
000300 29 49 b8 3a 18 32 d4 3c e1 d2 6b bc ae 00 3d bc
       0.0014059889 0.025902793 -0.014393539 -0.011535807
000310 a2 2a 15 bc 26 17 5d bc 30 f7 a5 bb 14 c5 8d 3c
       -0.009104403 -0.013494289 -0.0050648674 0.017305888
000320 d4 21 c4 3c 9e 94 b1 3b e1 88 81 3b 62 7d 77 3c
       0.023941912 0.005419328 0.003953085 0.015105577
000330 e0 a0 d2 3c db 4a 7b 3c 86 17 45 3c 07 ec c0 bc
       0.025711477 0.015337671 0.012029534 -0.023550047
000340 7e 38 ad bb 9e 76 01 bb 88 3e d6 3c 90 eb b9 bc
       -0.0052862754 -0.001975454 0.026152864 -0.022695333
000350 94 fb 79 3c 1c aa d7 3a 3c ca 88 3c 4a 13 70 bb
       0.015257735 0.0016453895 0.016697995 -0.003663259
000360 9e 5a 26 3c 8c 48 f4 3c 37 2c d6 ba 17 bd 6b 3c
       0.010153441 0.02981975 -0.0016340081 0.014388344
000370 33 0d 9f bb bf 52 3f bc 06 fa f6 ba f4 bf 17 3a
       -0.0048538684 -0.011677443 -0.0018842823 0.0005788796
000380 65 93 9f 3c 63 31 21 3c 46 9e b2 3c a3 69 9a ba
       0.019479463 0.009838435 0.021803986 -0.001178075
000390 31 b1 8b bc 34 68 69 bb 78 d9 39 bc c3 5e 1f 3c
       -0.017052265 -0.0035615088 -0.0113433525 0.009727183
0003a0 ce a8 b8 bc 85 e7 1e ba 84 ce aa 3c 14 55 aa 3a
       -0.02254143 -0.0006061721 0.020850427 0.0012995326
0003b0 25 9c d5 bc 80 24 9c 3c ea 28 09 3d 1a 00 b9 3c
       -0.026075432 0.019060373 0.033486284 0.022583056
0003c0 e9 0c 78 3c e2 bc 45 bb 47 4e 9c bc 9c 99 f1 3b
       0.015139797 -0.0030172397 -0.019080294 0.007373048
0003d0 83 00 2a bb ca be 3a bc 7b e2 ad bc b3 16 5f bc
       -0.0025940246 -0.011398027 -0.021226158 -0.013616252
0003e0 a9 f8 b4 3c 70 5b 95 bc 27 63 8b 3b 3b 21 a3 bc
       0.022091227 -0.018232077 0.0042537632 -0.019913306
0003f0 12 46 55 bc e5 6d 58 bc 14 ae 04 3d b6 c1 27 bc
       -0.013017194 -0.013209795 0.032392576 -0.010239055

decoder.0.bias f4 [64]
000000 22 93 b6 3c 65 d3 c6 3c 05 ba 9f 3a 1a db 38 bc
       0.022286955 0.024270723 0.0012186175 -0.011282707
000010 88 41 d0 bb df a2 d2 3a 13 33 9b bc 31 76 77 3c
       -0.006355468 0.0016070268 -0.018945253 0.015103863
000020 66 7c 27 3c 3e e9 d2 bc 1b 84 2b 3c 26 14 5b 3b
       0.01022253 -0.025745984 0.010468508 0.0033428757
000030 1a 40 69 bb d4 fc 1c 3c 2d 62 4c bc 32 89 12 3d
       -0.0035591186 0.009581763 -0.012474579 0.03577537
000040 91 73 6a bc 11 de 61 bc 93 db 13 3c c3 ea 73 3c
       -0.01430978 -0.013785855 0.009024519 0.0148875145
000050 c9 b7 a6 3a ff 61 d1 bc af e2 8b 3a a7 00 aa 3b
       0.0012719567 -0.025559423 0.0010672415 0.005188066
000060 a2 49 ca 3b 63 df c0 bc 54 a5 f4 bb 2a 93 62 3c
       0.0061733285 -0.02354402 -0.0074659977 0.013829032
000070 1e f3 b4 3c ca 60 f9 3c 29 00 0b 3b a8 20 33 3b
       0.022088584 0.03044166 0.0021209812 0.0027332697
000080 1a f5 86 3b 52 18 62 3c c6 85 a4 b9 e6 24 92 bb
       0.004118574 0.013799744 -0.00031380187 -0.004459965
000090 5b 05 fc 3c ed 30 e6 3c e3 3f 2b 3c 93 52 cb 3c
       0.030764272 0.028099502 0.0104522435 0.024819648
0000a0 56 b8 c2 3c cb 9f 3a 3c 20 87 26 3c 9a 09 b8 3b
       0.023769539 0.011390637 0.010164052 0.005616379
0000b0 d8 b2 94 3c 99 64 a2 bc b7 af 7c bc 1c 39 3a 3c
       0.018151686 -0.01982336 -0.015422753 0.011366155
0000c0 5f 02 0e 3d 52 a8 86 bb ae 3e bf bb 6e 78 90 bc
       0.03467023 -0.004109421 -0.0058363294 -0.01763555
0000d0 1d 19 d4 3b 64 6e a7 3c 3c 49 ce bc 7c db 73 bc
       0.0064727203 0.02043838 -0.025181405 -0.014883872
0000e0 93 2b 5f bb f1 6c 93 bb f8 09 82 bc 2b a9 95 3c
       -0.0034053072 -0.004499071 -0.015873894 0.018269142
0000f0 35 09 2b 3c e7 e3 25 3d 83 41 26 bc a2 b0 f9 3c
       0.010439207 0.040500548 -0.010147455 0.030479733

decoder.3.weight f4 [3, 64, 3, 3]
000000 4e 7d f3 3c 20 47 1b bd 0e 22 a7 3c ff 19 eb 3a
       0.029722836 -0.037909627 0.02040198 0.0017936825
000010 8f 93 d2 3c 81 de 88 3c 88 3c 1a bb 5c 08 ba 3c
       0.025705127 0.01670766 -0.0023534615 0.022709064
000020 02 42 e3 b9 05 56 03 bd 9b 9d fc bc ca 7b 8b 3b
       -0.00043345994 -0.032064456 -0.03083687 0.0042567
000030 42 a2 8b bc 6b f8 57 bd 0a 8d ac bb d0 53 d5 bc
       -0.017045144 -0.052727144 -0.0052658366 -0.026040941
000040 7d 60 f6 3b 78 9d f3 3a 93 22 97 3a b3 35 05 bd
       0.0075188265 0.0018586358 0.001153069 -0.032521915
000050 19 15 25 ba 7d eb 97 bc da 7e a5 3c 43 33 db b8
       -0.0006297394 -0.018544907 0.02020209 -0.00010452282
000060 0c de a2 b9 0e f9 1e bd 15 cb 21 bd e1 ae 0b 3c
       -0.00031064486 -0.038811736 -0.039500315 0.008525581
000070 88 a3 17 3d 1c 36 66 3c eb 64 dd 3c 93 3a f3 3c
       0.03702119 0.014050987 0.02702566 0.029691016
000080 1f c3 30 3d 17 d1 21 3d 16 4b 87 bc ef 48 db bb
       0.043154832 0.039506044 -0.016515296 -0.006692044
000090 19 24 32 bd 01 b4 22 bd a5 97 98 bc 9e 45 02 3c
       -0.043491457 -0.039722446 -0.018626997 0.007951168
0000a0 c9 b7 9b 3c 48 95 80 bc 46 89 44 3c f4 19 20 bd
       0.019008534 -0.015696183 0.011995619 -0.03908725
0000b0 cc 47 b0 bc b7 02 ed b9 4b 56 03 3d 98 3d ca ba
       -0.02151861 -0.00045206185 0.032064717 -0.0015429733
0000c0 87 2b d0 3c ee 40 f7 3b 9b 72 2e bd 9a 2a e8 3b
       0.02541138 0.007545582 -0.042589765 0.0070851566
0000d0 b3 6d ff bb e2 f5 9e bb bd 5a 18 bd 83 fc f0 3c
       -0.0077950596 -0.004851089 -0.03719591 0.029417282
0000e0 e9 b0 17 bd c8 ea 2d 3d 4e a9 46 3d 3b b3 76 3c
       -0.03703395 0.042460233 0.048501305 0.01505738
0000f0 e5 d0 d9 3c 30 8e 1b bc 04 86 5b 3c f8 92 d2 3c
       0.026588866 -0.009494349 0.013398651 0.025704846
000100 fc 91 06 3d 3e b6 71 bc 77 75 41 bc 99 7f 08 bd
       0.032854065 -0.014752923 -0.011807791 -0.03332481
000110 18 37 27 3a d4 8e 13 bd b7 50 0c 3d 33 16 0b bd
       0.0006378754 -0.036024883 0.034256663 -0.033956718
000120 77 eb 13 bd ae b9 81 bc 02 53 af 3a 6e 15 e8 3c
       -0.03611323 -0.01583561 0.0013376179 0.028330531
000130 52 49 9c 3c 75 13 4b bb f3 fe ab bb c0 ee 87 3c
       0.01907793 -0.003098694 -0.005248898 0.016593337
000140 27 33 18 bc 09 8a 6d 3c 5f 11 76 3b 30 ba 29 3d
       -0.009289539 0.014498242 0.0037546975 0.041437328
000150 4a 56 3f bc 67 ac bd 3c 4a b0 ba bc dd 23 fe ba
       -0.011678288 0.023153497 -0.02278914 -0.001938935
000160 3e b9 c8 3c 86 b3 7e 3c 12 c4 9c bc 59 22 32 3d
       0.024502393 0.015545731 -0.019136462 0.043489788
000170 90 6a 0b 3d 79 65 01 bc 08 60 28 3b 5c 70 c6 ba
       0.034037173 -0.007897728 0.0025692005 -0.0015139687
000180 fa 85 f0 bc fb e6 ef bc 52 45 04 3a 0e 90 ad 3c
       -0.02936076 -0.029284945 0.000504573 0.021186855
000190 44 92 df 3c 92 81 cc bb 2a 77 a7 3c 55 e8 58 3c
       0.027291425 -0.006241032 0.020442564 0.013238986
0001a0 d8 cd 31 bc 66 47 5a 3c 04 98 24 3d 63 77 d6 bc
       -0.0108523 0.013322687 0.040184036 -0.026179975
0001b0 38 09 ed 3c 50 ff d5 bc 6b 4d 58 bb 60 7e f1 3c
       0.02893506 -0.026122719 -0.003300513 0.029479206
0001c0 f3 19 e1 bc ed 68 8c 3c 98 c4 96 bc 59 f8 c0 bc
       -0.027478194 0.017139876 -0.01840429 -0.023555921
0001d0 e5 b8 1a bd 26 65 b4 bc 51 42 0a bd 92 64 3f 3c
       -0.037773985 -0.022020888 -0.03375465 0.011681693
0001e0 37 7a bc bc 5a 69 07 3b c4 06 af bc 4a b8 d4 bb
       -0.023007495 0.002066216 -0.02136553 -0.0064916955
0001f0 4e b2 96 3c fd 35 e8 3c 04 e7 c5 bc 3c 16 21 3d
       0.01839557 0.028346056 -0.024158008 0.039327845
000200 d0 90 d3 3c 0c cc a9 3c a9 9e 4e 3c 77 a7 99 bc
       0.025825888 0.02072718 0.01261107 -0.018756611
000210 d5 63 45 bb 5e 57 f6 bc e7 96 9c 3c 1e d4 e2 3c
       -0.003011932 -0.030070957 0.019114925 0.027689036
000220 da 72 7e bc 89 a0 15 bd 62 a1 b1 3c 78 1c 99 bc
       -0.015530312 -0.03653005 0.021683399 -0.018690333
000230 25 9d 0a bd 29 22 14 bd 0e 5e a7 bc e2 84 1c 3d
       -0.03384127 -0.03616539 -0.020430591 0.038212664
000240 5c fd 18 bc e2 d3 f6 bb 45 00 a0 3c 26 58 f2 bb
       -0.009337749 -0.0075325826 0.019531379 -0.007395762
000250 d0 0e 31 3c 46 b1 32 bc 56 ad 90 3c 08 e6 11 bd
       0.010806754 -0.010906523 0.017660778 -0.035619766
000260 ae 67 28 bd 07 3e a0 bb 0c f9 2b bc 2f 42 98 bc
       -0.0411145 -0.0048902067 -0.010496389 -0.018586246
000270 38 e9 2c bd d2 64 bc 3b f6 95 fd 39 05 ca 14 3b
       -0.042214602 0.0057493234 0.0004836765 0.002270342
000280 70 11 bb bb 1a fe 9c bc a5 5f 13 bc 2c 7b 92 3b
       -0.005708866 -0.019164134 -0.008994971 0.0044702496
000290 7b df ab bc ba 34 31 bd 90 dd b8 bc 56 da 8b bb
       -0.020980587 -0.043263175 -0.022566587 -0.004267971
0002a0 05 c5 fc bb 83 d8 bc 3c 46 13 1d 3c b3 a0 32 bc
       -0.0077139162 0.02305246 0.009587115 -0.0109025715
0002b0 97 46 16 3c 83 8e 11 3c 7f 27 a9 bc 9f 7b 3a 3d
       0.009172103 0.008884075 -0.020648716 0.04552805
0002c0 a4 27 8f 3c 10 aa 76 bc d2 54 e2 3c 5b 0f 2e bc
       0.017474957 -0.0150551945 0.027628336 -0.010623778
0002d0 2d 70 f7 3b a8 80 df bc 33 ff 89 3c 35 83 03 bd
       0.007551214 -0.027283028 0.016845321 -0.03210755
0002e0 d0 5c 22 bd 9e 34 72 3d f8 bd cb bc e9 d0 a0 3b
       -0.039639294 0.05913221 -0.024870858 0.0049077165
0002f0 22 15 2b bc ce e1 ae 3c 27 65 b0 3c fa 16 88 3c
       -0.01044205 0.021347906 0.021532608 0.016612519
000300 70 0b 96 bb 37 ed ed 3c a3 f3 ab bc 24 28 20 bd
       -0.004579 0.029043777 -0.020990198 -0.03910078
000310 16 5b e8 bc f9 70 bb 3c 45 26 f7 3c 92 88 03 bd
       -0.028363746 0.022881018 0.030169616 -0.032112665
000320 d6 bb 01 bc 49 af 62 3c 76 ad 3a 3c 56 01 75 3c
       -0.007918319 0.013835737 0.011393895 0.014953932
000330 05 9b 84 3c cd 6b 1f 3c fd 78 36 3c 33 e0 9f 3c
       0.0161872 0.009730292 0.011137244 0.019516086
000340 dd 9c 60 3c 5c 4f 83 bc 47 f2 05 bd 90 86 4f bd
       0.013709274 -0.016029052 -0.032701757 -0.05066544
000350 21 15 c0 bc d2 8e 93 bc 4e e7 f9 bb 81 ab 41 3c
       -0.023447575 -0.018012438 -0.0076264506 0.011820675
000360 b4 6a ea bc 45 84 0a bd 96 81 bc 3c 8b c1 7b 3c
       -0.028615333 -0.03381755 0.02301101 0.015365968
000370 c4 dc 49 bc 8f 9a ba bc 5d bd bc bc 9e 2e aa bc
       -0.012320701 -0.022778777 -0.023039514 -0.020774182
000380 be 28 04 3d 68 7b f2 bc 7c 45 32 3d e2 49 b8 bc
       0.032265417 -0.02959986 0.043523297 -0.022496168
000390 9d 14 65 bc 54 1b 88 3b 63 83 18 3c 6e cc 57 3c
       -0.013981965 0.0041536484 0.009308669 0.013171298
0003a0 e4 37 4d 3c e8 d0 1f bd 86 be 1f bd 8d 6d 76 3c
       0.012525532 -0.039017588 -0.039000057 0.015040767
0003b0 d3 d8 d1 3c 86 35 d6 bc 21 3e cf 3c f1 f5 ba bc
       0.025616085 -0.026148569 0.02529818 -0.022822352
0003c0 fd b1 1d bc 44 a4 87 3b 6e 32 c2 bc 59 03 6c bc
       -0.009624955 0.004139455 -0.023705687 -0.014405095
0003d0 5c da 24 3c 38 30 62 3a f0 a9 3e 3c 18 f5 ab 3c
       0.010061827 0.0008628401 0.011637196 0.020990893
0003e0 c7 a5 a5 3c ef 75 80 3c e6 cc e9 3c d1 63 dc 3c
       0.02022065 0.015681235 0.028540086 0.026903065
0003f0 ac 9a a2 bc b5 06 a5 ba 4c b3 22 3b de 2f 3a bd
       -0.019849144 -0.00125905 0.0024826108 -0.045455806

decoder.3.bias f4 [3]
000000 4f 1d cd 3b 7c 2f c6 3b 8c 7c 3d bc
       0.0062595974 0.006048141 -0.011565339
