interloper_v1/frame_interpolation_model_BETA.pth (torch, 333972 bytes, 6 tensors)

encoder.0.weight f4 [128, 6, 3, 3]
000000 ee 22 6f bc e3 c8 f5 bb 18 2d 6f 3d fa a9 d2 3d
       -0.01459573 -0.007500754 0.058392614 0.10286327
000010 d2 5b f8 bd da 02 f0 3d 22 1b fe bd 05 03 c2 3d
       -0.12126888 0.11719294 -0.12407519 0.09473232
000020 41 1f 00 3d 0e a0 e2 3d bf 73 92 bd 30 b7 02 3e
       0.031279806 0.11065684 -0.07150983 0.12765193
000030 77 1f e7 3d 30 ea 01 be c5 0b bf bd da e1 b5 bc
       0.11285298 -0.12686992 -0.09328417 -0.022202421
000040 eb d6 d7 3d d1 ac 69 bd e4 b7 9d 3c 81 4d 87 3d
       0.10539039 -0.057049576 0.019252725 0.066065796
000050 29 26 ce bd 0a 28 65 3d 70 d3 5c bd d2 a3 d0 3d
       -0.10065872 0.055946387 -0.05391258 0.10187496
000060 46 ac ad 3d a5 ee db bd 79 a5 e8 3d a5 5a 8b 3d
       0.08480124 -0.10738877 0.113596864 0.068043984
000070 fc 79 d9 bd e6 4c 5e 3d 28 f6 fb bd 43 4e 7c 3d
       -0.1061897 0.054272555 -0.1230281 0.061598074
000080 d7 68 86 bd e0 2a 82 3d 30 73 6b bb 5f fd 53 3d
       -0.06562965 0.06355834 -0.0035926811 0.051755305
000090 db 0e f6 bc 6d 84 d0 bd 8d bc ca bd 6d 41 d7 bd
       -0.03003638 -0.10181508 -0.098992445 -0.10510526
0000a0 76 b9 9b 3c 65 7f 8d bd 2a 4b a2 3d 31 22 88 bd
       0.019009333 -0.06909064 0.07924493 -0.066471465
0000b0 65 2a 24 bd 28 5f 11 bd 09 9f a4 bb 20 ee 04 bd
       -0.040079493 -0.03549114 -0.0050238413 -0.032453656
0000c0 ea bb 0d be b0 77 a2 3c 64 82 30 3d ce b6 7b 3d
       -0.13841215 0.019832462 0.0430931 0.061453633
0000d0 b6 b6 95 bc 28 7f e2 3d f0 2c fd bd 74 96 e5 3d
       -0.0182756 0.110594094 -0.12362087 0.11210337
0000e0 fc 37 c9 3d 81 85 fa bd 87 38 c8 bd cc 70 08 3d
       0.09825131 -0.12232495 -0.09776407 0.033310696
0000f0 28 e5 d9 3d c5 42 ce 3c 8e f5 93 3d 85 17 d7 bd
       0.10639411 0.025178323 0.0722457 -0.10502533
000100 af 24 da bc b8 5c 00 3e 21 ff 52 3d 29 fe 35 3c
       -0.02662882 0.1253537 0.05151284 0.01110796
000110 e8 df b1 bd f1 34 19 3d 0a 05 ad 3c f4 08 0b 3c
       -0.08685285 0.037404004 0.021120567 0.008486021
000120 e7 72 f2 bd bb 49 46 bd d6 f3 d7 bc 72 79 e5 3d
       -0.11838322 -0.04841016 -0.026361387 0.112048045
000130 ae ef 42 bc 0c 8b 4a bd c4 2b b1 bd 53 28 2e 3d
       -0.011897964 -0.04944901 -0.08650926 0.042518925
000140 66 0b 38 3d ec 48 dc 3c 37 00 32 3d 6f 55 c0 bd
       0.044932745 0.02689024 0.043457236 -0.09391295
000150 86 bb ea 3d 13 ab b6 3d 33 77 c6 bd f3 5c e5 bd
       0.114615485 0.089193486 -0.09690704 -0.11199369
000160 d4 a8 b9 3d 00 3e 30 bd 23 4f b6 3d 96 d8 89 3c
       0.090654045 -0.043027878 0.08901813 0.016826909
000170 78 1e 00 3e 63 2b 7d 3d 14 c6 f5 bd 70 19 ef bd
       0.12511623 0.061808955 -0.12000671 -0.11674774
000180 97 65 ed bc 12 8f ec bd 2c 7e cf bd cc 81 94 bd
       -0.028979106 -0.11550726 -0.10131487 -0.07251319
000190 41 38 8a 3d 4b 2e a6 3d 16 6d e8 3d 75 e4 dd 3d
       0.06749011 0.081142984 0.113489315 0.1083459
0001a0 bf 95 b5 3c 83 87 88 bd fd 15 9a 3d 86 20 a4 bd
       0.022166131 -0.06666472 0.07523725 -0.08014016
0001b0 15 30 b2 3a 44 a5 2b bb cf 29 25 3a de ab 89 3d
       0.0013594652 -0.0026191035 0.00063004805 0.06722234
0001c0 af a2 0a 3e 79 30 37 3c f4 1f 56 3d 5c a0 31 3d
       0.13538621 0.01118099 0.052276567 0.04336582
0001d0 c0 4a 86 3d a6 f7 89 bd a0 e5 4e 3d 7c ca ca bd
       0.06557226 -0.06736688 0.050511956 -0.09901902
0001e0 5d fb b6 bd 4e 7e 0e 3e 07 e1 8f bd f8 54 81 bd
       -0.089346625 0.13915369 -0.070253424 -0.06315035
0001f0 0c 29 f9 3d cc bb 71 bd 9a bb fd 3d 14 c3 39 3d
       0.12166032 -0.059016988 0.12389298 0.045352057
000200 cd f9 f8 bd e0 63 a1 bd ad 29 5c bd 5a 29 90 3d
       -0.12157021 -0.07880378 -0.053750683 0.07039137
000210 8d 53 e3 3d c6 76 ba bd b7 1a d3 bd 05 29 af bd
       0.110999204 -0.091046855 -0.1030783 -0.08552746
000220 5a 13 bf bc 61 ac 84 bd bc 5e 0a be c4 78 bb 3b
       -0.023324657 -0.06478191 -0.13512701 0.0057211835
000230 9a 4b 20 3d e6 9a c8 bd 9f c3 3a 3d 30 d2 54 3d
       0.0391346 -0.097951695 0.045596715 0.051958263
000240 77 39 2d bd 14 fc 08 3d ea 80 a8 bd 1f a6 93 3d
       -0.04229113 0.033443525 -0.082277134 0.072094195
000250 de 83 cb 3d dd 27 35 bd cd 86 15 3d 43 52 05 3e
       0.09937261 -0.04422747 0.03650551 0.13019662
000260 2d f3 e8 3d e0 0e ef bd 7b 52 88 ba 1f 90 0f 3d
       0.11374507 -0.11672759 -0.0010400558 0.035049554
000270 ed 3c a1 3b 0a be 2f bc 7f 8f 01 3e 88 6e 94 bd
       0.004920593 -0.010726461 0.12652396 -0.07247645
000280 5b 26 bc 3d 41 5d cc bd f2 57 ac 3d 52 13 62 3d
       0.09187003 -0.09978724 0.08415212 0.055194207
000290 84 77 f8 3d da f9 14 bd ad 06 a5 bd 8c 7c 86 bd
       0.12132171 -0.03637109 -0.08057914 -0.06566724
0002a0 03 10 45 bd dd 62 0e 3d 85 28 b6 bd 40 b4 0a 3c
       -0.048110973 0.034762252 -0.08894447 0.0084658265
0002b0 8f 25 7c 3d 0b 99 00 3d 07 72 ba 3d 9a 8e 8d bc
       0.061559256 0.031395953 0.0910378 -0.017279912
0002c0 39 4f fc bd df e9 2c 3c 52 03 d3 3d ab 29 e4 bc
       -0.12319798 0.010553806 0.10303368 -0.0278519
0002d0 f9 21 ac bd 31 bd cd 3b 35 2b 31 bc ae b7 0f bd
       -0.08404917 0.006278657 -0.010813524 -0.03508728
0002e0 15 7f ff 3d bc ae 80 bd 25 4d cc 3c 2a cc 8e 3d
       0.12475411 -0.06283328 0.02493913 0.06972535
0002f0 dd 7d 07 be 2f ba ce 3d d7 4e 54 bd 60 41 6b bd
       -0.13231607 0.100941055 -0.051833 -0.057435393
000300 27 55 2f 3d e5 69 ac 3c df 08 b7 3c a9 33 ab 3a
       0.042805817 0.021046588 0.022343097 0.001306166
000310 9d 4d 01 be fd 57 10 be 1e cb d9 3c 9e 9a e3 bb
       -0.12627263 -0.14096065 0.026586112 -0.006945922
000320 45 b4 d5 bd 7c a0 e0 3d 1e 86 ac 3d 76 df bc 3d
       -0.10434774 0.1096811 0.08424018 0.09222309
000330 23 65 d2 3d 2b 90 2f bd ed 8f 92 3d 17 da c7 bd
       0.102731965 -0.0428621 0.07156358 -0.09758394
000340 d8 05 82 3d 21 05 bd 3d 75 9e dd bd 3e bb 34 bd
       0.06348771 0.09229494 -0.10821239 -0.04412388
000350 fa 7f 89 bd 7b 75 d5 3d 21 1d fb 3c 36 f2 84 3c
       -0.06713863 0.10422798 0.030653538 0.016228776
000360 9b 04 95 bd f0 11 c6 bd e4 ae 45 bd 6c 14 8d bc
       -0.07276269 -0.0967139 -0.04826249 -0.017221652
000370 c1 58 b8 3b f5 0b ae 3d 3c 49 b1 3d 3c 0e 6a bc
       0.0056258147 0.084983744 0.086565465 -0.01428562
000380 8b 6f 94 bd 0f e8 d7 bc 05 25 6a 3c 02 d5 d1 3d
       -0.07247838 -0.026355771 0.014291053 0.10245706
000390 99 95 94 3d 45 7d 72 3d a5 26 7c bd 49 24 cb bd
       0.07255096 0.059201498 -0.06156029 -0.0991903
0003a0 e5 d8 bf bd 20 2b 83 bd c2 24 5a 3d 84 f0 93 bd
       -0.09367541 -0.0640471 0.05325771 -0.07223609
0003b0 a4 51 81 bd b3 bc c6 bd 56 c7 84 bb f4 a7 0e bd
       -0.063144 -0.0970396 -0.004052083 -0.03482814
0003c0 2d ee a5 3d b8 ce c6 bc aa 04 a5 3d 9d 0f 55 bd
       0.08102069 -0.024268493 0.0805753 -0.052016843
0003d0 5c 3f 76 3c 72 49 d7 3c e9 ba d0 bc ee 3a 4c 3d
       0.0150297545 0.026280139 -0.02547975 0.049860887
0003e0 b8 76 16 3c c1 ea be 3d 8b 3f ae 3d 74 71 94 bd
       0.009183578 0.093221195 0.085082136 -0.07248202
0003f0 c3 45 8e bd b1 77 84 3c 43 47 c7 3d 12 dd 8b bd
       -0.069469 0.016170355 0.09730389 -0.06829275

encoder.0.bias f4 [128]
000000 60 ae ab 3c 4d ef 08 3d 62 ef f0 bc 1a e9 c6 bd
       0.020957172 0.03343134 -0.029411022 -0.09712429
000010 b6 f4 78 3d 8b f4 ec 3d 51 21 98 3d 12 e6 94 bb
       0.06078025 0.1157008 0.074282296 -0.004544028
000020 a9 c4 e2 bd 2d a2 c4 bc da 3e 12 bc d1 3d ff 3c
       -0.11072666 -0.024003113 -0.008926118 0.031157406
000030 1e d5 50 3d d5 11 d0 3c 76 af f6 bd 9d 16 d3 3d
       0.050984494 0.025399128 -0.12045185 0.103070475
000040 fa d8 77 bc 03 3d b7 3d ed 67 ca 3d ee f9 ad 3d
       -0.015127415 0.08947184 0.098831035 0.08494936
000050 3c 0f e0 bd f3 f9 c9 bd 03 73 50 3d 09 aa 8a bd
       -0.10940406 -0.09862127 0.050890934 -0.06770713
000060 4a 0e 1a 3d c7 da e7 bc 53 9a 0e bd fd ef e8 3d
       0.037611283 -0.028302563 -0.034815144 0.11373899
000070 e8 fc da ba 9e ab ab bb a3 11 87 bc 2a 44 3d 3d
       -0.0016707452 -0.005238964 -0.016487902 0.046207584
000080 51 b5 31 bc 7e 44 3a bd fc 9c 26 bd 2d 54 44 bb
       -0.010846452 -0.045475475 -0.040677056 -0.00299574
000090 82 0e fd 3c f7 03 c3 3a 5a 85 be 3d 97 19 11 3d
       0.030890707 0.0014878501 0.093027785 0.035424795
0000a0 61 17 b3 bd e9 aa da bd 1c f7 9c bb 15 77 e6 bd
       -0.087446935 -0.1067713 -0.0047902 -0.11253182
0000b0 3f b1 ca bc b0 bc fe bd ce 4b 9e 3d db 13 dc bd
       -0.02474272 -0.12438333 0.07729302 -0.10745975
0000c0 61 ff 43 3d 5f c3 15 3d 8f 87 42 bd 98 7a ae bd
       0.04785097 0.036563274 -0.04749256 -0.08519477
0000d0 ea 85 14 ba 0c b9 3c bd 42 f4 f8 3d 3d 1d bb 3d
       -0.00056657067 -0.046074912 0.121559635 0.09136436
0000e0 23 c7 83 bd 4a d9 7c 3d bc 69 04 be be 3c 80 bd
       -0.06434467 0.06173066 -0.1293096 -0.06261586
0000f0 bc 01 e0 bd d9 ec 70 3d e1 8b 4a bd 1f 64 aa bd
       -0.10937831 0.058819626 -0.049449805 -0.08319878
000100 64 dc b7 3c 1a 73 d4 bc 88 49 96 bc d6 f1 f1 3c
       0.022443958 -0.025933791 -0.01834561 0.029534262
000110 ef 4f b2 bc b2 4e b3 bd 3a d5 9c bd 46 3c a3 bb
       -0.021766631 -0.08755244 -0.07657857 -0.0049815504
000120 24 16 c5 bd 13 12 f1 3c 04 1b 07 be ff ac 37 3d
       -0.096233636 0.029427564 -0.131939 0.044842716
000130 c5 ff a2 bd f7 b9 26 3d 00 cd a8 3d f7 d0 91 3d
       -0.079589404 0.040704694 0.08242226 0.07119935
000140 fc de 03 3d c1 51 80 bd d0 b3 c8 3d 37 64 9f 3d
       0.032195076 -0.06265593 0.097999215 0.07782786
000150 24 71 d5 bd 81 4b 44 bd 7c 7a 86 3d 08 ab ed bd
       -0.104219705 -0.04792357 0.06566331 -0.11604887
000160 2a 9b 62 3c 6c 61 65 bd 77 b6 77 3d 41 12 df 3d
       0.013830939 -0.056001112 0.060476746 0.108921535
000170 57 4b 8f 3d 77 2e 48 bd e2 15 ab 3d e7 6e 2e 3d
       0.06996792 -0.048872437 0.08353783 0.042586233
000180 b7 97 4f bc 20 ac d7 bd 3d 4b db bd 10 c9 7e 3d
       -0.012670449 -0.10530877 -0.1070771 0.062203467
000190 fa 95 db 3c 33 69 d1 3c 66 35 b3 bd c3 81 74 3d
       0.026804913 0.025562858 -0.08750419 0.059694063
0001a0 78 8f 35 3d eb 1e 99 3d c3 c6 e6 bd e5 17 40 3d
       0.044326276 0.074766 -0.112683795 0.046897788
0001b0 e8 f7 8b 3c 05 aa 87 3d 0f cf a7 3d 19 4c 2f bd
       0.017085984 0.066242255 0.0819379 -0.04279718
0001c0 db 56 c5 3d 73 11 e8 bd ee fc 47 3b 8d f7 12 bd
       0.09635707 -0.11331453 0.0030515748 -0.035880614
0001d0 70 15 a0 bd 99 80 9b bd 64 84 54 3c a1 b9 27 3d
       -0.07816589 -0.075928874 0.0129710175 0.040948514
0001e0 c9 42 4e 3d 84 cd 72 3d 09 41 9e bd 05 e1 94 bd
       0.05035666 0.059278026 -0.07727248 -0.072694816
0001f0 34 49 19 3d f5 a0 16 3d cd 6e cf 3d f3 fd 8f bd
       0.037423328 0.036774594 0.101285554 -0.07030859

decoder.0.weight f4 [64, 128, 3, 3]
000000 43 1a 7b bc 7c 1d b8 3c b1 19 4f 3c 37 54 73 3c
       -0.0153260855 0.022474997 0.012640403 0.014851621
000010 54 0b 0c 39 ec 1f 3f bc a3 c5 4a 3c 38 76 86 3c
       0.0001335566 -0.011665326 0.012376222 0.016413793
000020 ce ef ba 3c 4b d6 8a bc cc a1 e0 3c ee 7f 9a bc
       0.022819426 -0.016947886 0.0274209 -0.01885983
000030 3b 56 ab bc e4 c1 92 bc f1 ba 9b bc 66 59 37 bb
       -0.020915141 -0.01791472 -0.019010039 -0.002797687
000040 1d cc 78 bc 44 c0 cb 3b 7a 58 49 3c b4 23 b4 bc
       -0.015185383 0.006217988 0.012289161 -0.02198968
000050 93 70 74 3c 23 41 dc bc 70 e3 9e bc 21 65 bc bc
       0.014919418 -0.026886528 -0.01939556 -0.02299744
000060 c9 64 b1 bc 98 84 d9 bc ba bd ca bb a8 57 c6 bc
       -0.021654503 -0.026552483 -0.006187168 -0.02421172
000070 e7 68 d5 37 82 a3 19 3c 54 1c ab 3b 8d 35 0d 3c
       2.5440428e-05 0.009377362 0.005221883 0.0086187245
000080 cf 25 8b bb 47 70 1b 3c 9d 8d 51 3a cd 48 a0 3b
       -0.0042464505 0.009487218 0.00079938193 0.004891491
000090 64 d2 cc 3b 4d 2f 39 bc b7 0a 03 3c 92 d0 5a 3a
       0.0062506665 -0.011302781 0.00799816 0.00083471194
0000a0 34 08 e6 bc b2 37 4c 3c 65 7d 02 3c 32 9b 76 bc
       -0.028080083 0.012464451 0.007964467 -0.01505165
0000b0 14 5a 1c 3c 1e 07 cd bb 83 c7 1a bc 30 1a 33 3b
       0.009542961 -0.006256952 -0.009446981 0.0027328841
0000c0 cb b5 ed bb 76 df ad bc 0f 5a 00 bd cf 4a 56 bc
       -0.0072543374 -0.021224719 -0.031335887 -0.013079359
0000d0 d9 42 16 bb 35 09 51 3c 18 29 7e 3b 65 b3 d2 bb
       -0.0022928028 0.012758543 0.0038781818 -0.006430077
0000e0 60 ee 1e bc e3 25 69 3c 98 23 0d 3b d3 a1 1a bc
       -0.009700388 0.014230224 0.0021536108 -0.009437996
0000f0 8c fa 28 bc 44 a4 1a bc 13 22 55 3b 1b ed 19 bb
       -0.010313641 -0.009438578 0.003252153 -0.0023487273
000100 d4 77 9d 3b d6 a6 1a 3c 94 2c bd 3c 8a cd 43 bc
       0.0048055444 0.009439191 0.023092546 -0.01195086
000110 cf e6 fc 3c d9 0c 2c 3c a6 0f 96 3c 56 84 8f 3b
       0.030871777 0.01050111 0.018318009 0.0043797893
000120 e1 ef df 3c cf a7 52 bb 47 6a d9 bb ca 57 08 3c
       0.027336063 -0.0032143479 -0.0066349837 0.008321712
000130 a9 73 9c ba f1 c9 f8 bb 01 d4 d0 3c 44 09 54 bc
       -0.0011936325 -0.0075924327 0.025491716 -0.012941662
000140 2e ab a1 bc fb 0b 65 bc 47 87 93 ba 2b ef 94 bc
       -0.019734945 -0.013979907 -0.0011255526 -0.01818045
000150 b5 8a e6 3b 05 1e ba bb 96 dd cf bc 8d 97 e8 bb
       0.007035578 -0.005679848 -0.025374215 -0.0070981444
000160 dc 1f 94 bc 37 99 ce 38 81 e9 89 3b 43 ba e9 3b
       -0.018081598 9.851384e-05 0.004208744 0.0071328
000170 ae fe 8a bc 9c 9c cf 3c 24 d1 cc 3c 35 2e 31 3c
       -0.016967144 0.025343232 0.02500207 0.010814239
000180 0e 4c bd ba d6 f1 e9 3c cd ab e9 3b 07 58 f4 3c
       -0.0014442222 0.0285577 0.007131076 0.029827131
000190 a3 3e cb 3a 6d cf d8 3c 4d 95 a8 3c ec e9 c9 3c
       0.0015506338 0.026466096 0.020579005 0.024647675
0001a0 de e2 b4 3c 54 67 60 3b 9c 5b 71 3a 3c 86 b9 3c
       0.022080835 0.0034241276 0.0009207071 0.022647016
0001b0 b1 4b 3c 3c 86 bf 12 bc ca a0 55 bb a6 69 b9 3c
       0.011492656 -0.008956796 -0.0032597058 0.022633385
0001c0 a2 86 0c 3c 1d cd 27 bc 5b f5 de 3b 33 b7 cd bb
       0.008577021 -0.010241774 0.006804151 -0.0062779426
0001d0 2c bd d3 3c 1f ae c3 3c 5a dc a8 3c 39 f3 22 3c
       0.02584704 0.023886738 0.020612884 0.009945684
0001e0 bc 97 97 3c cb 0b a5 3c c3 84 62 3b 47 11 11 bd
       0.01850497 0.020147225 0.0034563995 -0.035416868
0001f0 bd 86 72 bb 9f 7d a2 bb 90 8d 86 3a fd 7b a7 ba
       -0.003700658 -0.004958823 0.0010265578 -0.001277804
000200 0b ce c2 3c c8 27 43 3c ec 39 80 3c 16 21 36 bc
       0.02377989 0.01191134 0.01565262 -0.011116287
000210 be 1e 7b 3a 51 e1 03 3c 94 10 36 bc 85 16 60 3c
       0.0009579471 0.008049325 -0.011112351 0.013677244
000220 5a 2b f0 bc f1 81 2e 3c 44 2a b4 bc fa 15 4e 3c
       -0.029317547 0.010651098 -0.02199281 0.012578482
000230 44 ed 86 3c 03 6a 07 3c 35 d8 b9 3c c2 ed b2 3c
       0.016470559 0.008265021 0.022686103 0.021841887
000240 d0 e6 d0 bb be 9d 42 bc 90 a8 72 bc d6 cd 9d 3b
       -0.0063751712 -0.011878429 -0.014810696 0.0048157973
000250 ef 07 b2 bc 35 3a 00 bd dc d1 33 3c 6a 8a 8a ba
       -0.021732299 -0.03130551 0.010975327 -0.0010569815
000260 40 0a a8 bc ff b8 09 bc 16 0a b7 bb 38 eb dc 38
       -0.0205127 -0.008405923 -0.005585919 0.000105342304
000270 61 73 61 bc f7 3f 36 bc 9b db d2 3c 19 d0 71 bc
       -0.013760419 -0.011123649 0.025739482 -0.014759087
000280 5c 46 c1 3b 29 da ce 3c e6 ed 04 3c b2 16 a1 bc
       0.00589828 0.025250511 0.00811336 -0.019664142
000290 94 ae f7 bb fe 6b a4 bc 83 99 31 bb b0 4a 55 3c
       -0.007558653 -0.020071026 -0.0027099557 0.013018295
0002a0 1e 38 f5 bc 6b ec 88 bc ec e8 e8 bc 0f f1 85 bc
       -0.029933985 -0.016714295 -0.028431378 -0.016350297
0002b0 3a e3 94 bc a2 78 e2 3b be 2b 00 ba 5c 5f 20 bb
       -0.018174756 0.006911353 -0.00048893306 -0.00244709
0002c0 c1 9c dc bb 70 33 10 bc 19 0e 88 bc e4 18 d0 3c
       -0.0067325537 -0.008801326 -0.016608285 0.025402494
0002d0 42 f1 4b 3c a9 d3 61 bc a1 68 d6 bc 78 8d ba 3c
       0.012447657 -0.013783374 -0.026172938 0.022772536
0002e0 32 0d 72 3c 65 87 6e bb bb d0 a2 bc dd 20 16 3a
       0.014773654 -0.003639662 -0.019874921 0.0005726943
0002f0 ca 74 54 3c 89 d7 bd bc cd 3e 21 3c 9c d9 64 3c
       0.012967298 -0.023174064 0.009841633 0.013967898
000300 b7 76 bd 3c 6c e1 36 3c 1b a7 01 bc 4e aa 70 3c
       0.023127897 0.011162143 -0.007913376 0.014689041
000310 d2 42 ab 3c 10 e5 41 3c 9f a0 38 ba 88 46 2c 3b
       0.020905886 0.011834398 -0.00070429774 0.0026287157
000320 4f aa 92 3c a2 69 1f 3c 8c 59 bf 3b f0 cc bb bb
       0.017903475 0.009729775 0.0058395322 -0.0057312176
000330 07 4b 81 3c ac 7d 83 3b af 55 42 3c e9 4e 04 3c
       0.015782846 0.004012784 0.011861249 0.008075454
000340 1f 22 f5 3c a4 b5 92 3c 91 93 3d bb 7d ca e7 3c
       0.029923497 0.017908879 -0.0028927068 0.028294796
000350 4e d8 21 3c 0a 4d e1 3c 43 52 0f ba 8a c1 90 3c
       0.009878231 0.027502555 -0.0005467275 0.017670412
000360 01 0e a2 bc 3e 7d 39 3c 25 dd 40 3c e2 62 50 3c
       -0.019782068 0.011321364 0.011771475 0.012718888
000370 fb ab 7b bc 5a 2e 95 3c 7e 52 f1 bc a6 8b 85 3c
       -0.015360828 0.018210579 -0.02945828 0.016301941
000380 6b 89 af bc 59 f0 d9 3b ef da 1c 3c 88 86 88 3c
       -0.02142783 0.006650966 0.009573682 0.016665712
000390 71 9b e1 3c 2c db dd 3c 45 3a f3 3c 75 a6 9a 3c
       0.02753994 0.027082048 0.029690871 0.018878201
0003a0 c8 de da 3c cd da 0d bc ed c9 ad ba 89 c8 93 bc
       0.026717559 -0.008658123 -0.0013259031 -0.018039959
0003b0 7d bf ab 3b 1d d9 12 bd b9 95 fd bc 73 bc 80 bc
       0.005241333 -0.035851587 -0.030955182 -0.01571486
0003c0 14 02 d2 bc 91 ce 65 bb 8d ed b5 bc a1 e0 7f bb
       -0.025635757 -0.003506575 -0.022208 -0.0039043801
0003d0 07 a0 be bc 68 e6 10 bb 3b 42 e9 bc 8a 1f a5 bb
       -0.023269666 -0.002210999 -0.028473964 -0.00503916
0003e0 bc 40 b4 3c c1 6f fd bc d9 2c 80 3b 5f 0b 39 3c
       0.022003524 -0.030937077 0.0039115963 0.011294215
0003f0 6e bc f0 3c cd 44 26 bc 53 d1 f1 3a 40 dc 99 3c
       0.029386725 -0.010148239 0.0018449224 0.018781781

decoder.0.bias f4 [64]
000000 c7 90 1b 3d 6b 02 15 3d 7d f3 f1 bc b9 03 e1 39
       0.037979867 0.03637926 -0.02953505 0.00042918118
000010 c0 64 df 3b 55 a9 34 3d 24 a2 84 bc 1c 35 f8 3c
       0.0068174303 0.0441068 -0.016190596 0.030298762
000020 45 c2 9d 3c de 6b 98 3c c3 da 71 3c 35 6c 15 bc
       0.019257674 0.018606123 0.0147616295 -0.009120037
000030 dd 49 ff bc f4 28 a5 3c 66 2d 8d 3b be 34 e6 3b
       -0.03116315 0.02016113 0.0043083904 0.0070253303
000040 da b9 b8 bc cf 5c 34 3c dc 9b 9c 3c 6d a9 8d 3c
       -0.022549558 0.011008455 0.019117288 0.017292703
000050 f6 bf 14 3c c5 a6 d2 bc f2 5e 1a 3c c7 43 f8 3c
       0.00907897 -0.025714288 0.009422051 0.030305756
000060 57 f9 f3 3b bf b0 3f bc 20 47 00 bd 10 65 06 bc
       0.007445495 -0.011699854 -0.03131783 -0.008202806
000070 f8 9b d1 3b bf 0e 37 3c 3d 61 6f ba 1c f5 6a 3c
       0.0063967668 0.011172949 -0.0009131616 0.014340665
000080 26 d6 31 bb e0 7b 35 bc 11 22 4c bc f7 4c c3 bc
       -0.00271357 -0.011076897 -0.012459294 -0.02384041
000090 e1 d2 d4 3b 7e 6d 0d bc 43 c1 3a 3c 61 4c 0a bc
       0.0064948653 -0.008632062 0.011398616 -0.008441062
0000a0 c4 b8 1f 3c 75 54 07 3d 8e a1 34 3c 82 73 ab 3c
       0.009748641 0.03303953 0.011024846 0.020929102
0000b0 5a a9 0d bb 03 f2 9c bc 9f 87 89 bb d7 68 05 3c
       -0.0021615834 -0.019158369 -0.0041970755 0.008142672
0000c0 c0 c9 b9 bc ac 88 8a 3c c6 10 6e 3c 65 5c 28 3d
       -0.02267921 0.016910873 0.014530366 0.04110374
0000d0 b2 b7 f0 bc 6f aa 22 3c 18 86 cf 3b fd 84 1c 3d
       -0.029384468 0.00992833 0.006333124 0.038212765
0000e0 05 2f fa 3b 33 02 b9 3b 83 cb f4 3b 74 cb a0 3b
       0.0076349997 0.005646014 0.0074705495 0.004907066
0000f0 e4 a2 a4 3c 9e 1d 2d 3d c8 ab 0f bd 1c 18 ad 3c
       0.020097204 0.042264573 -0.035075933 0.02112966

decoder.2.weight f4 [3, 64, 3, 3]
000000 73 2b 14 bc 79 4e b5 3c bc 76 8c bc 17 aa 24 bd
       -0.009043562 0.022132145 -0.01714646 -0.040201273
000010 b0 3d 1f bc 90 6d 97 bc e1 23 6a 3a 8e e9 f8 bc
       -0.009719297 -0.01848486 0.0008931738 -0.030384805
000020 dc bd d6 3c 1e de bb 3a ef 1b c2 3c d4 1b a3 bc
       0.026213579 0.0014333164 0.02369496 -0.01991073
000030 0a 44 55 ba 32 14 18 bd 5e 99 d0 bc 6c 34 d7 bc
       -0.0008135444 -0.037128635 -0.025463756 -0.026270114
000040 d9 30 1a 3c c3 48 8b bb b2 15 21 3d 58 49 15 3d
       0.00941106 -0.004250617 0.03932733 0.0364469
000050 fb 7d 07 3c 55 40 9a 3b ac f0 3c 3b 22 aa e2 3c
       0.008269782 0.004707376 0.0028829975 0.027669016
000060 ce 52 33 3d cb f4 8d 3c 64 ef cb 3a c4 74 39 bd
       0.04378014 0.01732864 0.0015559015 -0.045277372
000070 c7 ac 42 3c e1 5d 17 3d 42 c5 53 bc b4 18 fe 3b
       0.011882014 0.036954764 -0.012925448 0.0077544097
000080 50 2d 44 3d 65 a9 62 3c 9f 08 ec 3b 03 a9 ee 3c
       0.047894776 0.013834332 0.007203176 0.029133325
000090 2c c1 09 3d 2b 1d c8 bc 50 c6 d9 bc 20 7b 04 3d
       0.03363149 -0.02442797 -0.02658382 0.032343984
0000a0 75 54 0d bd b9 4a 5b 3c 3f 4d ab 3c 0a 19 ef 3c
       -0.034504373 0.0133845145 0.020910857 0.029186744
0000b0 75 76 89 3a 62 33 c4 bc 0f 9f 06 3c 95 fd 18 bd
       0.0010487573 -0.023950282 0.008216633 -0.03735121
0000c0 d7 65 c1 bc 3b 55 7a bc a9 3b 1f bd 79 0c b0 3c
       -0.023608131 -0.01527911 -0.038875256 0.021490322
0000d0 d7 c6 1c bd 4f 44 03 bc 2e 56 80 3c 61 bf c8 bc
       -0.038275566 -0.0080118915 0.015666094 -0.02450532
0000e0 92 dc 02 bd 99 8d 8e 3c 15 dc 3c 3c 9a 8f 0d 3d
       -0.031948633 0.017401503 0.011527081 0.034560777
0000f0 65 2f 4e 3c 58 b6 0d bd 85 59 21 3d 31 88 e9 3b
       0.012584542 -0.034597725 0.039392013 0.007126831
000100 19 95 b6 bb ab ed 3e 38 00 a3 61 bd d4 07 9e bc
       -0.005571973 4.5520876e-05 -0.05508709 -0.019290842
000110 6f b4 bb 3b 7b a2 a0 bb 30 6c 33 3b 19 7b 9d bb
       0.0057282965 -0.0049021817 0.0027377717 -0.004805934
000120 f0 77 0b 39 ab 50 3f 3b 03 37 14 bd fd ad 04 3b
       0.00013300753 0.002919237 -0.036185276 0.0020245307
000130 18 02 11 bd 7c 31 45 bd cd 76 8f 3c 6f 9b f6 bc
       -0.035402387 -0.048142895 0.017512703 -0.030103413
000140 7a 2c 95 3c b4 31 c8 bc ca 27 a2 3c bc 9f 34 bd
       0.018209685 -0.024437763 0.019794364 -0.044097647
000150 37 cf 0b 3b c5 c8 fa bc 68 05 88 3c 50 36 86 3c
       0.0021333226 -0.030613312 0.01660414 0.01638332
000160 8a d3 0f 3c 28 48 01 bc 0f 32 d3 bc 93 c7 00 3c
       0.008778462 -0.007890739 -0.025780706 0.007860082
000170 0c 55 1a 3d 00 57 81 3c 4a 39 3e bc d8 94 f7 3c
       0.037678763 0.015788555 -0.011610338 0.030222341
000180 e2 c8 40 bd 09 61 2b bc d0 81 e5 3b 6a 3d ca 3c
       -0.047066577 -0.010460147 0.0070040002 0.024687488
000190 7c 00 ba 3c 1c 19 8d 3b c2 c6 93 3d 66 30 d7 3c
       0.02270531 0.004305972 0.072156444 0.026268195
0001a0 11 cb 18 3d 61 38 0d 3d 99 27 6f 3d 8a 68 1d 3d
       0.037303034 0.034477595 0.058387373 0.038429774
0001b0 24 44 7c 3c 9b a8 04 3d c5 e7 36 3d 47 54 2d 3d
       0.015397105 0.032387357 0.044654626 0.0423167
0001c0 2e 87 04 3d 6e 4c b2 3c de 22 83 bc fd 4d 7b ba
       0.03235548 0.02176496 -0.016007837 -0.00095865113
0001d0 4c 2d c8 b9 83 96 08 3d 24 de d6 3a 34 67 9a 3c
       -0.00038180721 0.033346664 0.0016393107 0.01884804
0001e0 c2 d3 1b bd 98 da f7 bc af e4 1a bd 47 40 a7 3b
       -0.038043745 -0.0302556 -0.037815746 0.005104098
0001f0 0d 29 88 3c d2 a2 c9 bc 4e 2e da 3c ec 20 38 3d
       0.016621137 -0.024613772 0.026633408 0.04495327
000200 49 50 57 bb 30 ba 5e 3d ca 7d fa 3c 00 c6 03 3d
       -0.003285425 0.05437678 0.030577559 0.03217125
000210 8e 6c fb 3c e5 8d ef 3c 27 13 9e bc 82 15 59 3d
       0.030691411 0.029242465 -0.019296242 0.052999027
000220 26 73 c7 3c 8c 0c d1 bb 6e c6 09 3d 6d 93 89 3b
       0.0243469 -0.0063796695 0.033636503 0.0041984827
000230 7f ed 95 bb 72 6a 90 3c fe f1 c6 3c eb 05 88 bb
       -0.004575431 0.017628882 0.024285313 -0.004151096
000240 ef 3e 23 3c bf 7b 66 3c 21 9a 13 bd 2e eb 0d bb
       0.009963735 0.014067589 -0.03603566 -0.002165507
000250 5c 02 ac 3c 02 46 c6 3c dd 62 07 bd 56 9a 2d 3d
       0.020997219 0.024203304 -0.033053268 0.042383514
000260 87 7a 02 bd 20 6a 3c 3d 25 db 30 3d 50 ef eb 3c
       -0.031855132 0.045999646 0.043177743 0.028800637
000270 2a 28 a1 bb b5 cb 46 3d 20 b7 8d 3b 54 67 25 3d
       -0.004918118 0.048534114 0.0043248087 0.040381745
000280 eb b2 9e 3c 5d 14 a1 39 5a be 75 3c 8f 94 61 3c
       0.019372424 0.00030723485 0.014998997 0.013768329
000290 2f 44 ca 3c fa f5 cf bc cf 7f a4 bc 8c 5c 0e 3d
       0.024690716 -0.025385845 -0.020080475 0.03475623
0002a0 59 70 e3 3c c9 9f 03 3d a1 14 49 3c db 6d 60 bb
       0.027763532 0.032134805 0.012272985 -0.0034245166
0002b0 eb 32 0a bb f0 5a 5d 3c 7f 8e 44 bd 44 c6 4e bd
       -0.0021087478 0.013510451 -0.047987457 -0.05048205
0002c0 94 d6 46 bd 14 cb 7e bc 67 ad 54 bc f6 fd e4 3c
       -0.04854448 -0.015551347 -0.012980795 0.02795313
0002d0 c8 7d ac bc c1 7e cf 39 78 62 b9 3c c6 94 aa ba
       -0.02105607 0.00039576556 0.022629961 -0.0013014309
0002e0 9e f8 35 bc 64 2e 0f bd ca cc 0f bd 81 7e 46 3c
       -0.011106638 -0.03495635 -0.03510741 0.012115122
0002f0 02 de 1f bd ac 54 24 3d d2 58 31 bc a9 ec 17 bc
       -0.039030083 0.040119812 -0.010824399 -0.009272733
000300 62 27 34 3d e2 56 38 3d 7a dd db ba 6b d4 1c 3d
       0.04398287 0.045004733 -0.0016774379 0.038288515
000310 18 16 92 bb f8 62 43 bc ec 9d fd 3b ae 31 fd bc
       -0.0044582 -0.011925451 0.007739773 -0.030907478
000320 cf b8 73 3c db aa 52 bb ad bb 29 3d 0c 61 42 bc
       0.014875605 -0.0032145295 0.041438747 -0.011863958
000330 94 9b fb 3c ef 3a 75 3d 0c 59 54 3c 59 cc 4e 3c
       0.030713834 0.059870657 0.012960684 0.012621962
000340 e0 b4 a4 3c 99 d0 24 bd 60 38 16 bd a4 c7 b1 bc
       0.02010578 -0.040237997 -0.036674857 -0.021701641
000350 54 b0 08 3c 4d 31 87 bc 46 49 77 bc 11 7f c4 bb
       0.008342821 -0.016503 -0.015093153 -0.005996593
000360 eb 18 94 3c 04 6e f9 bc 37 3b 44 bd 32 d0 e8 bb
       0.018078288 -0.030447967 -0.047908034 -0.007104897
000370 bf f6 47 bd c1 d4 85 bd 5a d1 9c bc b4 2f a8 bd
       -0.0488193 -0.0653472 -0.019142795 -0.08212224
000380 71 23 09 bd 8c 0c 36 bd 70 08 31 bb a6 63 9e 3c
       -0.033481065 -0.04444556 -0.0027013086 0.019334625
000390 4b 12 8c 3c ea ae 10 bd 71 61 ff bc 27 88 b0 bb
       0.017098567 -0.03532306 -0.031174393 -0.0053873244
0003a0 85 6f 96 bc 2e 33 06 bd 89 85 63 bc 1c 46 e2 b8
       -0.018363724 -0.032763653 -0.013886818 -0.00010789579
0003b0 7e ef bb 3c 56 2c 33 3c ad 67 e1 3c 3e 34 1f 3d
       0.022941347 0.0109358635 0.027515257 0.03886818
0003c0 3e 9a 8f bb c0 8e 82 bc 7b 7a ac bc 1e f8 1d 3b
       -0.004382401 -0.01593721 -0.021054497 0.0024104188
0003d0 28 a7 db 3b ce c9 0a bd 26 c5 12 bd 31 4f 97 bc
       0.006703276 -0.033883862 -0.035832547 -0.018470379
0003e0 48 d1 a8 3c 6d e2 b0 3c 5d 1f fa bb d9 1b ec 3b
       0.020607606 0.021592343 -0.0076331333 0.007205468
0003f0 b3 d2 14 3d e4 09 d1 3b 7c c6 33 bc 0d 86 ba 3b
       0.03633375 0.006379353 -0.010972615 0.0056922496

decoder.2.bias f4 [3]
000000 07 b5 33 3c fb fd 77 bc dc 3d 48 3c
       0.010968453 -0.015136237 0.01222178
